output/harmonized_screens_parrot_weights.pth (torch, 32595 bytes, 11 tensors)

lstm.weight_ih_l0 f4 [80, 20]
00000000: a46f 3b3e 8257 2cbe 6977 5dbd 936a 113c
00000010: 7e51 21be ad41 c7bd 9543 2b3e d00b 4fbe
00000020: f785 fd3d 8f81 1fbe d8c1 fc3d bed8 953d
00000030: dc53 dabd 927d 78bc e6ce 1bbe 7ee2 37be
00000040: 1a5f 61be 5596 a63d 39af 443c b00e 303e
00000050: 3bc5 213a dbac bfbd 5161 8c3d 1172 94bd
00000060: ef70 1b3e 08af a9bd cdbb 353e a5cd 2ebe
00000070: cf72 3f3e b59f 233d 70e5 3f3e 6ef2 45be
00000080: e596 efbc 07eb 0dbe a70d 62bd 2a91 4cbe
00000090: 224b eabd bcb1 03be 3481 79bd 079a c6bd
000000a0: e43d c9bd 08fd 39be 7900 22be 3cc6 72bd
000000b0: 5861 7a3d e808 943d fe1b 85bd ef86 aa3b
000000c0: 9de0 433d e60d 15bc 15bc c23d 0950 223c
000000d0: d3c4 d4bc 7c53 0bbd b4bd 12be c669 ccbb
000000e0: 3074 2a3d 4a6b c33d 4288 2a3e 2255 f63d
000000f0: 39b5 6dbd 5f08 36bd 6d50 363e f5dd 663e
00000100: da22 4a3d f698 bebd 57ce 25be bacb b2bd
00000110: 1de9 dcbd 26d6 97bd bf04 32bc 21c9 a5bd
00000120: 73db 333e ce74 273e 8990 36be e295 edbd
00000130: 9951 61be 8a19 ba3d 4a5e 423e 4df4 343e
00000140: d627 4fbe d6c0 d13c 9ff8 9dbd bd64 76be
00000150: ab1b d8bc 4543 fabd c078 34be 9a86 093e
00000160: b6ff b83c 17e3 1a3e b11d e0bb da3f 7fbe
00000170: 1e6e 29be ae50 d0bd 7641 153e d937 36be
00000180: 583e 7dbe 6109 22be ee64 613e cd02 b43b
00000190: ee22 4dbd dba3 0cbe bd2c 3b3d ac85 80bd
000001a0: e08d 03be a80f 26be 1a25 383e f805 e83d
000001b0: 9a24 3f3c 9313 2b3e b1c1 afbc 9bbc 5e3e
000001c0: 595c 6b3e 5346 32be ccd6 59be 48e4 a5bc
000001d0: 94ae 253e 2b36 86bd 6665 03be fc51 c33c
000001e0: 3d40 0bbe f4b7 76bc e898 01be 2c7c 473e
000001f0: d2bb 39be 882a 3d3e 4772 f03d 3465 1cbe
00000200: 8a7c 873e b141 0ebe 9468 55bd bc58 a9bd
00000210: ffa5 183e 0954 00bc 5039 b0bb bc8f 6c3e
00000220: 2be4 303e 0430 50be 903a ab3d 39cf bcbd
00000230: 354c 23be 747b cfbc 0672 313d bd96 7a3d
00000240: bd5a ebbd 2d47 f63d 2ec5 ceba 354a 2dbd
00000250: ff6e 833e 3469 37be 6f82 d63d c3d0 f73c
00000260: 2fad 13be 3ff9 01be 15bc 09be c45a 93bd
00000270: c8c9 463e 0d3f fbbd 1ee9 81be ccd0 c1bd
00000280: 7aed 5ebe 9c82 3d3e cd12 00be c9ae a4bd
00000290: e478 8bbd 2555 6b3d e91c eabc 3e0a b0bd
000002a0: ac67 b6bd 4dae 023e 1d18 3ebe 74e7 66bb
000002b0: 6e1e 373e dd46 63be f5e5 e13c 43c6 163d
000002c0: 89f9 263e c29a 5ebe be2e 15bd 98c8 543e
000002d0: 7b35 eebd 6ae0 0cbe c176 393d 0073 843c
000002e0: 314c 8d3e 1b8c 2abe bf27 1c3d 2d16 21bd
000002f0: 4494 4cbc 7fb6 7fbd 9e19 f0bc c750 57be
00000300: 1f59 60be 65ce 21be d716 cabd adb3 41be
00000310: f460 70be 5e10 1abe a043 91bd be48 413e
00000320: 88c7 513e bc07 323e 7a8d 1ebe 4b01 2dbe
00000330: f0dd 323e 2d2c af3d 185f 5b3c 4562 fcbd
00000340: 60af 84bd 06ef 88be 1b76 d53d 38b0 c6bc
00000350: abfd 2dbe c470 23bc 5d70 f83d a5d5 29be
00000360: de9f 5dbd 2912 7f3c 8e32 8c3c 4f35 183e
00000370: 0e98 bc3d 5937 803d b3e3 35be d09d 673b
00000380: c324 4c3e ef0c 41be e04f 383e 0e39 8bbc
00000390: 9567 50be 6c84 d5bd 302b 883d 8dd4 8f3c
000003a0: 03cc 44be 6857 363e ab8a dfbd 16b8 2b3e
000003b0: dc5d 7a3d 0da2 1b3e b04c 793c 1d18 8b3d
000003c0: 7126 0f3e dea7 4dbe c2c7 5f3d 065b fabd
000003d0: c3ff 1dbe 81eb fa3c 9cdd 45be d119 67be
000003e0: 3848 e73d 1840 24be 9ea7 303e d466 2fbd
000003f0: 0a3e 17be 73d8 183e cb13 19bd da03 f7bd
0.18304306 -0.16830257 -0.054068957 0.008875507 -0.15753743 -0.097293235 0.16724999 -0.2021935
0.123790674 -0.15576766 0.1234166 0.07316731 -0.10660526 -0.015166657 -0.15215644 -0.17957494
-0.22008935 0.08134142 0.012004667 0.17193103 0.0006171052 -0.093591414 0.06854499 -0.07248319
0.151798 -0.08285338 0.17747422 -0.17070635 0.1869614 0.03994723 0.18739867 -0.19330761
-0.029246757 -0.13859187 -0.0551888 -0.1997725 -0.11440112 -0.12860769 -0.060914233 -0.09697347
-0.09826258 -0.1816293 -0.15820493 -0.059271082 0.06112799 0.07228261 -0.0649948 0.0052040736
0.04782163 -0.009097552 0.0950853 0.009906777 -0.02597276 -0.034015164 -0.14330178 -0.006238195
0.04161471 0.09541948 0.1665354 0.120279565 -0.058034156 -0.044441577 0.17804118 0.22545607
0.049349643 -0.09306519 -0.16191994 -0.08730264 -0.1078665 -0.074138924 -0.010865389 -0.08095003
0.17564182 0.16353151 -0.17828573 -0.116008535 -0.22003783 0.090869024 0.18981281 0.17671318
-0.2023004 0.025604647 -0.07713436 -0.24061866 -0.02638038 -0.12219862 -0.17624187 0.13430253
0.02258287 0.1512569 -0.006839477 -0.24926701 -0.16545913 -0.101716384 0.14575753 -0.17794742
-0.24730814 -0.1582389 0.22011158 0.005493498 -0.05008214 -0.13734381 0.045696963 -0.06275496
-0.1284709 -0.1621691 0.17982903 0.113292634 0.011666441 0.16706686 -0.021454664 0.21751635
0.22984447 -0.17409639 -0.21273345 -0.020250455 0.16179878 -0.065533005 -0.12831649 0.023842804
-0.13598724 -0.015058506 -0.12655985 0.19480962 -0.18138054 0.18473256 0.11740547 -0.15272981
0.26462203 -0.13892247 -0.052101687 -0.08268878 0.14907072 -0.007832536 -0.005377926 0.23101705
0.17274539 -0.20330817 0.08360779 -0.09219212 -0.1594704 -0.025327422 0.04332163 0.06117891
-0.11491916 0.120252945 -0.0015775317 -0.042307097 0.2567062 -0.17911226 0.10474097 0.030250913
-0.14421533 -0.12692736 -0.13450654 -0.071950465 0.19412911 -0.12267885 -0.25373167 -0.09463653
-0.21770278 0.18506855 -0.12507172 -0.0804115 -0.068101674 0.057454247 -0.028578239 -0.085957035
-0.089064926 0.12761803 -0.18563886 -0.0035233172 0.17882702 -0.22195001 0.027575472 0.03681017
0.16306128 -0.21738723 -0.03642153 0.20779645 -0.11631294 -0.13757482 0.04527927 0.016168118
0.27597192 -0.16655008 0.038123842 -0.03932779 -0.012486521 -0.0624299 -0.02930909 -0.21026908
-0.21908997 -0.1580139 -0.098676376 -0.18916197 -0.23474485 -0.15045306 -0.070929766 0.18875405
0.20486271 0.17385763 -0.15483657 -0.16895024 0.17467475 0.08553348 0.013389371 -0.12323431
-0.064787626 -0.2674486 0.104229175 -0.02425395 -0.16991298 -0.009975616 0.121308066 -0.16585405
-0.05410754 0.015568295 0.01711395 0.14864086 0.0920869 0.06260557 -0.17762642 0.0035341866
0.19935898 -0.1885259 0.1799922 -0.01699498 -0.20352013 -0.10425648 0.06648862 0.017557407
-0.1921845 0.1780678 -0.10915121 0.16769442 0.061124668 0.15198536 0.015216038 0.067917086
0.13979508 -0.20083568 0.054633863 -0.122243926 -0.15429597 0.030629875 -0.19322819 -0.22568442
0.112930715 -0.16040075 0.17251441 -0.042822674 -0.1476976 0.14926319 -0.03737239 -0.120612815

lstm.weight_hh_l0 f4 [80, 20]
00000000: 0a9f 87bd 792a af3d d3a9 0bbe e1fe 053e
00000010: d546 e23c 5658 2a3e de00 0e3e 7d50 ac3c
00000020: 5f7c 0abe daad 603d 0cc4 56be 536d 363e
00000030: 90f6 2fbd a0fc 28be b9df d9bd c678 a2ba
00000040: dc99 44bc 881a 37be 9994 653c 554f fdbd
00000050: 6534 503e 315e 033e f145 1dbe 04ac 1b3d
00000060: 547d 263e 84c9 6abc 90e4 583e 45cd a8bd
00000070: f73b b8ba b6e6 36be b578 4e3e 32d9 c5bd
00000080: a6a6 5a3e 7f9d aabd 928c 23bd 4f81 c83d
00000090: 7462 fabd 5db1 d5bc caad f7bc d584 363d
000000a0: 5bd2 003d 991b cabd 9dd8 913c e963 a7bd
000000b0: bc2c 82bc d558 67be a46d 3a3d 9e56 4dbd
000000c0: 08bd 44be bb30 a13d cffc 2cbd b696 f6bc
000000d0: 273b 6abe d0ce cabd d797 edbd cbbe 86be
000000e0: 6b74 3cbe 754f c13d 98fc 53be 6ec1 203e
000000f0: 59d6 39ba 228b a23d ff38 f1bb 508e 03bd
00000100: 5871 7abd ee9a 46be 2acd dc3d 5b14 563d
00000110: c3be 28be d93f 25be b6ef 1e3e ba1a 76bd
00000120: 8385 acbd 7f87 10be e584 0c3d c2c4 ed3d
00000130: 8036 3ebd fbe0 21be 1fbf 683e 3ed0 f33d
00000140: 7f97 343d 0a35 403b 5f94 d73c 1c24 ea3d
00000150: 3996 88be 3451 1e3d d890 65be b233 24be
00000160: 5c59 343e 4c40 63bd ad48 93bd a88e 183e
00000170: 7830 70bd 8a20 833e 5d06 72be 4210 5cbe
00000180: b227 b33e d9ce d23c 6ebd 01be 3ef4 4f3e
00000190: 1a34 dbbd 53ab 42be b60c 26be 20c2 303e
000001a0: 289e 01be b9b6 d43d ca1a 5f3e 38ae 1d3e
000001b0: 93af 433e 24e7 7ebd 4c1c 27be 7012 0abe
000001c0: 92f3 c53c 405d 803c c774 b23d 707e 2d3e
000001d0: 5847 333e d726 13be e5ca 4ebe c57b f5bd
000001e0: 19a8 02be 41f3 cc3d 7c76 5dbe a4c5 cf3d
000001f0: 77de e13d 66be 6dbe 142f 55be 7ec6 383e
00000200: edbb e43d e344 b6bd 2fa6 53be 973a 433e
00000210: 01dc cebd 9744 263d d65f 3e3c b092 e73d
00000220: df61 f33d af57 dbbc f778 99bd 4875 1f3e
00000230: 9d6b f53d 7961 ef3d 0dd3 0b3e f5f1 4cbe
00000240: 7336 2a3e 2bc5 1cbd a159 e33d b574 74be
00000250: 63bd 833c 593c f33d 86a1 51be 73c1 35be
00000260: f7dc dfbd b027 15be 78a8 333e 26d5 40be
00000270: bc35 64be e7dd 0ebe d115 843c 6ab5 603e
00000280: 2192 653e f7e2 0d3e b2d7 3cbe a6fd 4b3e
00000290: 4c39 b83c 5028 14be 6cbc 933c e7f2 043e
000002a0: 5861 043e 9c1d 71ba 48c8 1d3e b63d 44be
000002b0: e53e 8ebd 2d8c c03d 343a 05be 37fa 9b3d
000002c0: 98cc 6abd 85fc 41bd e9b6 8db6 1b28 02be
000002d0: 1d44 a23d 9c9b 02be 1061 163c 3fe8 2c3d
000002e0: 1be1 903e 03ff a4bd 4db3 503d 0b38 403e
000002f0: 79e1 6abe c101 e83d 4967 723e b696 033e
00000300: fd85 66be da94 4d3d a307 ddbd 3d56 ef3c
00000310: 6886 9ebd 7144 293d f268 413e ea1b 05be
00000320: e7a0 16be 3f19 f1bd 1e6b 1dbe 1e3f 8d3d
00000330: 825e d83d 74ff 49be a7f4 1fbe 398b bebd
00000340: 2ac6 543d c58d 7dbe 1632 4a3e c093 1c3d
00000350: d513 bf3d 59a8 2f3d 4172 c1bd bc1c 7bbb
00000360: 6a15 0bbe 8da7 2dbe 42fc 443e 5c95 82bb
00000370: e56d 4ebd 5775 68bd a95f 55be 68ce b7bd
00000380: 3eb8 d2bd 68c6 983d 84a0 a73d 3816 283e
00000390: 8e17 cebd df84 7e3e bf07 4abe 34e4 2cbe
000003a0: a774 3ebd b57b a63d 1398 96bd d121 6ebe
000003b0: ee89 0abe e583 313e da0c 023d 77ec cc3d
000003c0: 151a 20be 9056 16bd 400a ec3d 2525 4e3e
000003d0: ecf3 4bbe d2c3 1d3e ac7d 243e 67f8 463e
000003e0: f71c a9bd 0757 653e b920 3c3e 26d7 35bd
000003f0: d994 753b 9778 30be 0520 c9bd dea9 503c
-0.06622131 0.08553023 -0.13639002 0.1308551 0.027621666 0.1663526 0.13867518 0.021034474
-0.13524006 0.054853298 -0.20973223 0.17815141 -0.04295975 -0.16502619 -0.10638375 -0.0012395612
-0.011999574 -0.17881215 0.014012479 -0.12368647 0.20332487 0.128289 -0.15358712 0.038005844
0.16258746 -0.014330272 0.2118094 -0.08242277 -0.0014055957 -0.17861447 0.20163234 -0.09660567
0.21352634 -0.08330821 -0.03992898 0.09790289 -0.1222581 -0.02608555 -0.030234236 0.044560272
0.03145061 -0.09868545 0.017803485 -0.08173353 -0.015890472 -0.2259248 0.045514718 -0.050131433
-0.19212735 0.07870623 -0.042233285 -0.030101161 -0.22874127 -0.099027276 -0.11601227 -0.26317438
-0.18403785 0.09438983 -0.20701826 0.15698788 -0.000708913 0.07936694 -0.007361531 -0.03211814
-0.06114325 -0.19395038 0.107813194 0.052265506 -0.1647902 -0.16137637 0.1552113 -0.060084082
-0.08423903 -0.14114188 0.034306426 0.11609794 -0.046438694 -0.1580848 0.22729157 0.119049534
0.04408979 0.0029328489 0.026315866 0.114326686 -0.2667711 0.03865166 -0.22418535 -0.16035345
0.17612213 -0.05548124 -0.07191596 0.14898169 -0.058639973 0.25610763 -0.2363524 -0.21490577
0.34991223 0.025733398 -0.12669918 0.20308015 -0.10703297 -0.19010668 -0.16215786 0.17261553
-0.12657988 0.10386414 0.21787563 0.1539849 0.19109945 -0.06223215 -0.16319388 -0.13483596
0.024163995 0.015669465 0.0871368 0.16942763 0.17507684 -0.14370285 -0.20194586 -0.11986498
-0.12759437 0.100073345 -0.2162723 0.10145119 0.1102876 -0.23217162 -0.2081874 0.18044469
0.111686565 -0.08899858 -0.20668863 0.19065319 -0.10100556 0.040592756 0.011619529 0.11307275
0.11883902 -0.02677521 -0.07493775 0.15572083 0.11983416 0.11688513 0.13654728 -0.20014174
0.16622333 -0.03827397 0.1110108 -0.23872645 0.016081518 0.11876745 -0.20471773 -0.17749576
-0.109308176 -0.14565921 0.17544734 -0.1883131 -0.22286123 -0.13951837 0.016123684 0.21944204
0.22419025 0.13856111 -0.18441656 0.19920978 0.022488259 -0.14468503 0.018034182 0.12983285
0.12927759 -0.00091978326 0.15408432 -0.19164166 -0.0694559 0.094017364 -0.13010484 0.07616084
-0.057324022 -0.047359962 -4.223421e-06 -0.12710612 0.07923148 -0.12754673 0.009178415 0.042213675
0.28296742 -0.08056452 0.050952245 0.18771379 -0.22937573 0.113284595 0.23672213 0.1285046
-0.2251205 0.050190784 -0.10792472 0.029215926 -0.0774048 0.041325036 0.1888769 -0.1299893
-0.14709817 -0.117723934 -0.15372893 0.06896804 0.10564901 -0.19726354 -0.15620671 -0.09303898
0.051946796 -0.24761112 0.19745669 0.038226843 0.093299545 0.04288516 -0.0944562 -0.0038316688
-0.13582388 -0.16958447 0.19236854 -0.00398509 -0.050397772 -0.05675253 -0.20837273 -0.08974916
-0.10289048 0.07459718 0.08184913 0.16414726 -0.100630865 0.24855374 -0.19729517 -0.16883928
-0.046497967 0.08129064 -0.073532246 -0.23255087 -0.13529179 0.1733547 0.031750537 0.100060396
-0.1563495 -0.036703646 0.115253925 0.20131357 -0.19917268 0.15406731 0.16063565 0.19430695
-0.08257478 0.2239648 0.18371858 -0.044394635 0.0037472753 -0.17233501 -0.0982056 0.012735812

lstm.bias_ih_l0 f4 [80]
00000000: c57f fc3c 4e32 1ebd 1d4a 66bd f6e1 f3bd
00000010: bc1e f53d 2446 c6bd 7400 0dbe a0e5 52be
00000020: 3d49 c23b c22b 813e 8bdd 97bc 784e d1bc
00000030: 7679 93bd 54ea 2e3d ff3b 443e 8da5 183e
00000040: 042d 4bbd 302d 373e 9e95 b53d 92fc 3cbe
00000050: 811f 933e 062d 5d3e d324 8f3e 5d47 15be
00000060: fe9a bf3e 5e09 873e 1041 033e 141a 803e
00000070: 82cd 233e 8ca1 1c3f f7a0 7e3e ff66 f6bd
00000080: f40f 4d3d 65a1 bbbd 5cd4 303e b17f 84bd
00000090: 72e3 a83d 673d 943e b934 4f3d 26d8 8f3e
000000a0: 1c2e 16be b742 46bb 4902 8d3e 5a8f bcbd
000000b0: 7820 d93d 29f0 a73d 64e7 5fbe 228d 433d
000000c0: 5581 10bd 6aac 483e 58e0 35be 3096 16be
000000d0: fd2b 37be 7030 48bd e1bf 1ebe 9c09 f23c
000000e0: 6e4b 753e fc4e 093e dfde e1bd e0fc 51bd
000000f0: bc54 3a3d 27de 973d 887a 8c3c de33 de3d
00000100: c67d d33e 1fd5 483d 14bb 083e 586c 68bc
00000110: 077d 0a3e 1cb7 e33e 5e81 85bd 683c 32be
00000120: 9316 14bd 5651 a7bc e06e 453e db12 3dbe
00000130: 404d 83bb 54ba 85bd 6ef0 14be bbc7 35be
0.030822644 -0.038622193 -0.056223024 -0.11908333 0.11968753 -0.09681347 -0.13769704 -0.20595407
0.005929141 0.25228697 -0.018538257 -0.025550112 -0.07200901 0.04270394 0.19163512 0.14906903
-0.049603477 0.17888331 0.08866428 -0.18455723 0.28734973 0.21599206 0.27957782 -0.14578004
0.37422937 0.26374334 0.12817788 0.25019896 0.15996364 0.61184 0.2486609 -0.12031364
0.050064042 -0.09161643 0.17268509 -0.06469668 0.08246507 0.28953096 0.05058739 0.28094596
-0.14666027 -0.0030252167 0.27540806 -0.0920703 0.10601896 0.08200104 -0.21865612 0.047742017
-0.03527959 0.19597021 -0.17761362 -0.1470573 -0.17887874 -0.04887432 -0.15502883 0.029545598
0.23954555 0.13409036 -0.110288374 -0.05126655 0.045490965 0.07415419 0.017148271 0.10849737
0.41306895 0.049031373 0.13352615 -0.014185987 0.13524257 0.4447564 -0.065188155 -0.17405856
-0.03615434 -0.020424526 0.19280577 -0.18464224 -0.0040070117 -0.0652968 -0.14544842 -0.17751972

lstm.bias_hh_l0 f4 [80]
00000000: 7e77 1fbe 943e 55bd 03d1 123e a4a5 e53d
00000010: b2ab 3ebe ee7a 80bd 8b72 a03c 9672 39be
00000020: 418c eebd 8a04 613b 48cc 2f3e 170c 45be
00000030: 8c60 13be 1c84 013e 6b15 c6bd 1a9d 37be
00000040: ad20 643e 7c5f b93c cef3 893d 3869 783d
00000050: da12 813d 6a14 7d3d 6323 013e 5ad1 c23d
00000060: 9931 f73e 1fb5 5cbd b7c9 26bd 6ca8 383c
00000070: 97f6 b6bd 0759 283f ce9a 563e 6677 a7bd
00000080: 0c2e 053c a5b2 62bd b829 ba3e bbcb 7c3e
00000090: da70 903e ef65 643e a27b cc3e ff97 5d3e
000000a0: 29c1 743d 9af0 19be 663f cc3c cc97 953e
000000b0: 2add a03c 3c0b aebd a576 23be f78b 4dbd
000000c0: 9699 153d b425 343d fe29 75be 4d77 17bd
000000d0: 3fca 63be 2791 bbbc 7d05 a2be 1e8b 07bd
000000e0: 9f30 a4ba 773a 423e ab7d 8a3c 0b24 83ba
000000f0: cb53 2d3e 852a f6bd 482b f43d 8da1 5fbe
00000100: e1be 213d 6f94 2e3e 8b8c 923d 6d59 883e
00000110: 2e53 96bc f253 e33e b3cd 803e d23f 5fbc
00000120: 5a22 43be 88f6 2fbc cde3 03be f706 223e
00000130: 8a4e 733e 79c3 5a3e 07b6 ad3c 9ed8 f83d
-0.15572926 -0.052061632 0.14337544 0.11213234 -0.18620184 -0.06273447 0.019585868 -0.18110117
-0.11647845 0.003433498 0.17167771 -0.19242893 -0.14392298 0.12648052 -0.09672054 -0.17931023
0.2227809 0.022628538 0.06735955 0.06064722 0.06302424 0.061787046 0.12611155 0.09512587
0.48280028 -0.053883668 -0.040719714 0.011270624 -0.08933752 0.65760845 0.20957491 -0.0817707
0.008128654 -0.05534615 0.36359954 0.24687092 0.282111 0.2230451 0.39938074 0.21640013
0.059754524 -0.15033188 0.024932574 0.29217374 0.01963671 -0.084982365 -0.15963228 -0.05018231
0.036523424 0.04398127 -0.239418 -0.03697901 -0.2224512 -0.022896362 -0.31644812 -0.033091657
-0.0012526697 0.18967615 0.016905626 -0.0010005248 0.16926496 -0.12019829 0.11922318 -0.2183897
0.039488677 0.1704881 0.07155713 0.26630726 -0.01835021 0.44399983 0.25156936 -0.013626056
-0.19056073 -0.01073993 -0.12879868 0.1582297 0.23760429 0.2136363 0.021204961 0.121506914

lstm.weight_ih_l0_reverse f4 [80, 20]
00000000: 3249 443e ca4b bdbd 7ad8 c83b ea18 62be
00000010: 32f7 5b3e fbb4 233d 63c0 5ebe 6461 343e
00000020: d4d1 583e 7386 3a3e 22b2 3bbe 3582 473e
00000030: e3ad 81bd f6b8 3b3e 9291 42be 18ba 4d3e
00000040: c437 56be e8ae 97bd ee06 52bd c678 28be
00000050: d0e0 a1bd 06c6 efbc 5e88 2fbe 9311 1b3d
00000060: 09a5 423e 7b61 cebd c097 37be 1000 51be
00000070: 35e3 a7bc 6e2b 93bd 5e03 263e 79f7 5dbe
00000080: cd28 a73d 90ff 353e c9f6 d93d 4b5b 5e3e
00000090: f65c 5abe c41c 163e ef7c 4c3e b171 fa3b
000000a0: 337e fe3d bda6 02be 99bf 1d3e d872 1bbe
000000b0: 8af7 6abe 1f2f 1abe d070 f2bd eeab 07bd
000000c0: 75d0 fe3d 94d1 51bc 0e23 513e 0605 433e
000000d0: 83cc b43d 4476 5fbe 4d9d 58be 7096 c53d
000000e0: 910a 18be 9e2c 523e 93af f2bd 1549 a0bd
000000f0: bb72 493e dbe2 2abd 365e 083e 0185 133d
00000100: 8f0e 44be 4022 423e 036d 7f3c dc2b 663d
00000110: ba2e b33d 8dc6 493e 6a06 9ebd a3e3 0cbe
00000120: 65ef 9c3d 3b41 6fbd a92a 6bbd 21f0 1d3e
00000130: a7a3 de3d 401e 243e c4f4 55bd 5074 3bbe
00000140: fdbf 62be 5be1 2fbe b4c5 4bbe b624 083e
00000150: c26e 993d 679d a13d a846 bdbd be1e ba3d
00000160: 126f 103e 68a5 393c 8738 66be c41f 4ebe
00000170: 823c 4f3c e61e 0dbe d4bf 073e fb78 273e
00000180: 333f ff3d 696f 093e b3c0 06bd cf38 1bbe
00000190: 4d1b 1fbe 4c50 913c 531d 183d 78c6 553e
000001a0: fb84 95bd dbe4 c73d 1e98 b73d a4f1 0c3e
000001b0: 239d 56be a465 183d c550 a0bd 42f8 573e
000001c0: 6a97 ee3c 685e 8c3c 8e63 54be 8973 d33d
000001d0: 0658 913d 3f72 42bd 5930 043e 1a5b 55bd
000001e0: 677f a1bd bf21 46be f5b5 2dbe 7d11 47be
000001f0: b162 09be 1a6b d73d 79f7 46bb 46a3 9b3c
00000200: 01e5 1ebe e7d5 c5bb 4785 8d3d 66dd 313d
00000210: 0335 e53d 8b99 743c 62f1 473e 21a9 283e
00000220: 5d58 c53c 1b3b 76bd 2186 01be 8ea5 ff3d
00000230: 207e 3c3e fbfd 0fbd c1f6 fdbd 0710 f23d
00000240: 0d8c 023e de21 5ebc 5dda 0dbe d33c 58be
00000250: 06cf 03be 1d59 79bd ebfb 21be 9cce 3fbe
00000260: a5ec c73d 95ef 2dbe efdd 1abe 7ce0 00be
00000270: bee6 be3c 88dd c8bc c47f c73d 456c 00bd
00000280: f3bd 1abe 9ac2 1a3e b513 29be ebef f63c
00000290: 3220 74ba 24b1 b13d fcfd 243e 1b96 42be
000002a0: 18ca 143e 141c c33d 491a 053e ee0d 5fbe
000002b0: c620 90bd 49e8 1d3e 12d3 8abd 561c 823d
000002c0: b220 f63d f885 38be dd63 e2bc 854b 293e
000002d0: 88e8 eabc 65b7 0d3e e343 3e3e b8fe aebd
000002e0: c158 3fbe d4dc cfbd c875 ac3d 9128 f0bb
000002f0: 4fe6 00be fb9c b7bd 9f97 5cbe 1290 fd3d
00000300: cb51 223e c8c7 3dbe 0bc0 9c3d b936 59bb
00000310: a232 26be cdb7 c03c c86e 46be 45de 053e
00000320: ba1c 2fbe b70f 11bd 225b 29be d38c 3d3e
00000330: d93e 02be eeff 043e 5931 b6bd 4d03 593e
00000340: 1da5 1e3e 7bc2 d6bd d132 48be eefd 493e
00000350: 8155 56be da04 3ebe d821 57be ed27 1fbe
00000360: 3463 e2bd 08b9 bc3d 684f 373e c5d9 0cbe
00000370: 8dbe c23d 33e2 dabc df3b 5a3e 7084 fabd
00000380: 64a8 553e e90e 53be 6c8f 3c3e c352 f9bd
00000390: ee87 27be 98ab b63c 9596 a73d 4db2 2f3e
000003a0: 0fa7 d83d 3e07 b23c 76f2 ce3d ce01 08be
000003b0: 43a4 17be aff9 26be da77 15bd 6385 b03c
000003c0: 4b36 0abe f591 433e 5df2 d23d 9688 213e
000003d0: 9d98 3cbd df90 28bd a36f f9bd 1c21 e53c
000003e0: dd68 22be eac2 ed3d ee4d 083d b198 473d
000003f0: c739 cd3d c444 cbbd fd61 b5bd 6561 5b3e
0.19168547 -0.09242971 0.0061293216 -0.22079816 0.21481016 0.03996752 -0.21753077 0.17615277
0.21173793 0.18215351 -0.18329671 0.19483264 -0.063319944 0.18332276 -0.19000843 0.2009052
-0.2091971 -0.074064076 -0.05127614 -0.16452321 -0.07904208 -0.02926923 -0.17141864 0.037858557
0.19008268 -0.10077187 -0.17928982 -0.2041018 -0.020494083 -0.07186018 0.16212222 -0.21676435
0.08162079 0.1777327 0.10642774 0.21714513 -0.21324524 0.1465941 0.19969533 0.0076429476
0.12426414 -0.12758918 0.1540512 -0.15180528 -0.22945991 -0.15057038 -0.118379235 -0.03312295
0.12442104 -0.012806315 0.20423529 0.19044885 0.0882807 -0.21822459 -0.21153755 0.09647834
-0.14847781 0.20524833 -0.118498944 -0.07826439 0.19672672 -0.041720252 0.13317189 0.036015514
-0.19146179 0.18958378 0.015589955 0.05619417 0.08749147 0.19704647 -0.07716067 -0.13758712
0.076628484 -0.058411818 -0.05741373 0.15423633 0.10871058 0.16027164 -0.05223538 -0.18306088
-0.2214355 -0.1717581 -0.19899637 0.13295254 0.074918285 0.0789135 -0.09241992 0.09087895
0.1410487 0.01133094 -0.22482501 -0.20129305 0.0126487035 -0.13781318 0.1325677 0.16354744
0.12463226 0.13421406 -0.032898616 -0.1515839 -0.15537758 0.017738484 0.03713734 0.20876491
-0.07300755 0.097604476 0.08964561 0.13764054 -0.2095838 0.037206307 -0.078279056 0.21090797
0.029124934 0.01713486 -0.20741102 0.10324771 0.07096867 -0.047472235 0.12909068 -0.052088834
-0.07885628 -0.1934881 -0.16963942 -0.19440265 -0.13416554 0.10518475 -0.0030359908 0.018998753
-0.15517046 -0.006037462 0.06910186 0.043424033 0.11191752 0.014929186 0.19525674 0.16470768
0.024089986 -0.06011496 -0.12648822 0.12482749 0.18407488 -0.035154324 -0.1240058 0.11819463
0.12748738 -0.013557879 -0.1385283 -0.21116953 -0.12871942 -0.060876 -0.15818755 -0.18731159
0.09761933 -0.16985925 -0.15123723 -0.12585634 0.023303386 -0.024519697 0.09741166 -0.031353254
-0.15111522 0.15113297 -0.16511424 0.030143699 -0.0009312659 0.08676365 0.16112512 -0.19002573
0.14530218 0.0952684 0.12998308 -0.21782658 -0.07037501 0.15420641 -0.0677854 0.06353061
0.12017955 -0.18019855 -0.02763551 0.16532715 -0.028675333 0.1383949 0.18580584 -0.085446775
-0.186862 -0.101495415 0.084209025 -0.0073290546 -0.12587856 -0.089654885 -0.21542214 0.12380995
0.15851514 -0.18533242 0.07653817 -0.003314419 -0.16230252 0.023525143 -0.19378197 0.1307307
-0.17100802 -0.035415377 -0.1653867 0.18510751 -0.12719287 0.12988254 -0.08896131 0.21192665
0.15492673 -0.10486313 -0.19550635 0.19725773 -0.20931055 -0.18556538 -0.21009004 -0.15542574
-0.11054078 0.092149794 0.17901385 -0.13754947 0.09509001 -0.026719188 0.21311902 -0.12232292
0.20865017 -0.20611157 0.18414086 -0.12173989 -0.16360447 0.02229862 0.08183018 0.1715786
0.10578739 0.021731969 0.101048395 -0.13281938 -0.14808755 -0.16306184 -0.036491252 0.021547979
-0.13497274 0.19098647 0.103001334 0.1577476 -0.04604398 -0.041153785 -0.12179496 0.02796989
-0.15860315 0.116094425 0.033277445 0.048729602 0.10020786 -0.099252254 -0.088565804 0.21423872

lstm.weight_hh_l0_reverse f4 [80, 20]
00000000: 120d 37bd ea5a 12be 2e1a 30bd 4eb4 793c
00000010: 358c b43d e20d bebd 5052 293e 7d04 a3bd
00000020: 5533 1ebe 59d8 08be 2087 10be 6f21 e13c
00000030: b092 5f3e a783 613e 33ed f7bd 0489 f33d
00000040: 08fa b6bd 6bf2 83bd ae9e 0dbd 2668 0b3e
00000050: 421b 4d3c 6729 5bbd 2a36 dc3d 027f 95bd
00000060: e0a5 4a3d c1e6 3cbe 9658 41be a726 27be
00000070: af70 ce3d 63a4 54be 2f1f 333e ba3a e0bc
00000080: edb1 3b3e 7c53 013e f26b 283d 6fb6 ba3d
00000090: f645 6bbd f6ad e43d bcc1 10be a1b4 f43d
000000a0: e625 503e 443c 27be 8708 aabd 5386 2a3e
000000b0: b9ac 3dbd f3ab 8ebd deb5 353e 4c47 c53d
000000c0: 69cd 14bd f435 d83d df92 283e ed4e 1a3e
000000d0: 97c0 b8bd 9162 2c3e c1c7 293e 436b 7e3c
000000e0: 2d3a 5cbe 0137 783d 43b4 08bd cc41 ff3d
000000f0: 0765 46bd 4051 003e 4227 f43c dbcf 23be
00000100: e45c 50be 7fb7 403e 39b1 123e c406 2b3e
00000110: 10d5 01be 9590 db3d dbad 48bc c2c7 403e
00000120: a7c4 5d3e ec94 cdbd 1b76 d1bc 5054 993b
00000130: f472 e03d 4ca9 7b3d 41b7 263e 7d81 09be
00000140: 5405 2d3e 0f9d 50be 9afd 39be 0e86 9bbd
00000150: 2fe5 52bb e4ed 4d3e 475d f4bd c129 853c
00000160: d47b 323e 9c2e 033e bbb3 4b3d 03c4 3fbd
00000170: 7329 c83d 8315 1abd 67e2 b7bd 6310 1a3e
00000180: 91e8 26be 9e1c e4bd c99b ff3d 5f98 5abe
00000190: ced6 38bd cd4a b0bd d966 aa3d 869f 703c
000001a0: 397f 59bd 7141 56be c2bf 183e 68f6 e63d
000001b0: e846 57be bb09 553e d58c 62be 023b 333e
000001c0: c281 d8bd db35 f63c 24f1 163e 0b0e 673c
000001d0: f153 423e 6be0 49be 8b71 663d d4e7 613e
000001e0: 3d35 49bd 1c73 c6bd 9874 873b e9c0 473e
000001f0: 1df7 0f3e 0551 543e ccce aebd 803b acbd
00000200: d6d7 2c3e 8da5 63be 9f8c bd3d 6846 9ebd
00000210: 32a4 56be a54b 19be 57c0 333e 6078 0c3d
00000220: 2c2b 833d f61a 473e 8812 f2bd b1fa 4b3e
00000230: a0ce 8f3c 1715 e4bd c474 aebd 5fb8 aebd
00000240: 1869 723d 8e56 ee3d 5520 563e c78b 4fbb
00000250: 553a 313e 2ae3 7d3c 83dc 853d 7f32 3a3e
00000260: 7ea4 3f3e adf2 2fbe 4c2c 0dbe 0cd2 f63c
00000270: 29cd 42be 69dd 8abd bb8b c03d 2f21 f03c
00000280: 43ec 363e 3c49 f73d 9857 443e 15ec a3bd
00000290: a103 dcbd ee48 323e ee50 cebb 3cae e6bc
000002a0: 40b1 393e 9126 05be 8d7e 443e a758 573e
000002b0: c2c6 ae3d 27f4 21be c1cc 74bd 3235 85bd
000002c0: 7b51 af3c edc3 19be 0a38 dc3c dc8e 193d
000002d0: 9a14 2bbe f54e 24be 94da b03c 79e2 4d3e
000002e0: 06f9 553e 1afa ab3d 5212 39be 03ab f73d
000002f0: f1cf 243e cd2c 223e 715a d43d 7350 2c3c
00000300: a851 38bd cfc6 733b a35c f63d 48cd e33d
00000310: 634e 153e bd08 febc cec7 be3d 0bef 4fbe
00000320: 3275 eebd f307 2b3e 8c60 16be ddff 653e
00000330: 3dcf 323e 8654 0fbe 2f50 fa3d 72b3 4bbe
00000340: c2f2 fbbc 6de2 2cbc 9f90 953d c781 363e
00000350: 158a 76bc a785 a8bd 5d99 023d 995c cf3d
00000360: 1095 9cbc 4111 7ebc b38b b4bd 166b 4abe
00000370: bc99 113e 8e3d 2f3d 87a4 48be 8f79 383d
00000380: a946 01bd 959a 10be cc6c 4d3b 022c 5bbd
00000390: 20c3 4c3e 687c 433e 8b4f 123d fbcb 64be
000003a0: 9688 3dbe 5d77 3e3e 75d8 303e c1a1 e4bd
000003b0: b05c 27be adc8 533e 845e 1dbe d1a8 973a
000003c0: e06c 273e 288f 47be c953 5e3e 7112 2e3e
000003d0: 7ed6 573e 6145 18be 099e 41be 0d02 b4bd
000003e0: 534d 2ebe f759 013e 2657 51bd 88c6 cfbb
000003f0: 9749 0bbd 0885 3bbb b47e a43c 11d8 31bc
-0.0446902 -0.14292493 -0.042993717 0.015240742 0.08815805 -0.09279992 0.16535306 -0.079598404
-0.15449269 -0.1336378 -0.14114046 0.027481763 0.218333 0.22022878 -0.12105789 0.11891368
-0.089344084 -0.06442722 -0.034575157 0.13613948 0.012518706 -0.05350628 0.107525185 -0.072996154
0.049474597 -0.184474 -0.18881449 -0.16323338 0.100800864 -0.20765834 0.17492364 -0.027371753
0.18329592 0.12629503 0.04111857 0.09116828 -0.057439767 0.11165993 -0.14136404 0.11948515
0.20326957 -0.16331583 -0.08302408 0.16652803 -0.0463073 -0.069663905 0.17745158 0.096327394
-0.036328707 0.10557166 0.16462277 0.1506917 -0.090211086 0.16834475 0.16580106 0.015528503
-0.21506567 0.06059933 -0.033375036 0.12463722 -0.04843619 0.12530994 0.029803876 -0.1599726
-0.20347935 0.18819998 0.14325418 0.167018 -0.12678933 0.10720936 -0.012248482 0.18826202
0.21657048 -0.1003817 -0.025569012 0.0046792403 0.109594256 0.06144075 0.16280843 -0.13428302
0.16896564 -0.20372413 -0.18163148 -0.07593928 -0.003218006 0.2011028 -0.11931854 0.016255261
0.17430049 0.12810749 0.04973195 -0.04681779 0.09773531 -0.03761817 -0.0897873 0.15045314
-0.16299655 -0.11138271 0.124808855 -0.21347187 -0.04512673 -0.08608017 0.08320398 0.014686471
-0.053099845 -0.20923401 0.149169 0.11277467 -0.21023142 0.20804493 -0.22124036 0.17502978
-0.10571624 0.030054977 0.14740425 0.014102469 0.18977334 -0.19714515 0.056260627 0.22061092
-0.049123038 -0.09689924 0.004133772 0.19507183 0.1405911 0.20734031 -0.08535537 -0.08409786
0.1687921 -0.22231121 0.09255337 -0.07728273 -0.20961073 -0.14970262 0.1755384 0.034294486
0.06404719 0.19443879 -0.11819941 0.1991985 0.017554581 -0.11136835 -0.08518365 -0.0853126
0.059182256 0.11637603 0.20910771 -0.0031669007 0.17307408 0.015496055 0.065362 0.18183325
0.18715093 -0.17182417 -0.13786429 0.030129455 -0.19023575 -0.06780512 0.094016515 0.029312698
0.17863564 0.12074515 0.1917404 -0.080040134 -0.1074288 0.17410633 -0.0062962687 -0.028159253
0.18134022 -0.13002993 0.191889 0.21029912 0.08534004 -0.15815793 -0.05976558 -0.06504287
0.021401158 -0.15016146 0.02688219 0.037489757 -0.16707078 -0.16045745 0.021588601 0.20105924
0.20895776 0.083973125 -0.18073395 0.12093165 0.16094948 0.15837403 0.10368813 0.010517227
-0.04499975 0.0037197357 0.12029388 0.11123139 0.14580683 -0.031010026 0.093154535 -0.20306031
-0.11643447 0.16702251 -0.14685267 0.22460885 0.17461868 -0.13997087 0.12222325 -0.19892672
-0.030755404 -0.010552031 0.07302975 0.17822944 -0.01504757 -0.08228617 0.03188454 0.101250835
-0.019114047 -0.015507043 -0.08815708 -0.19767413 0.14218801 0.042783312 -0.19594012 0.045037802
-0.031561527 -0.14121468 0.0031345366 -0.053508766 0.1999631 0.19090426 0.03572039 -0.22343437
-0.18509135 0.18600221 0.17270072 -0.111636646 -0.16343951 0.2068202 -0.15368086 0.0011570697
0.16350126 -0.19488204 0.21711649 0.16999222 0.21077916 -0.14870216 -0.18907942 -0.08789454
-0.17021684 0.12631975 -0.0511085 -0.0063408054 -0.034005728 -0.0028613228 0.020079948 -0.010854737

lstm.bias_ih_l0_reverse f4 [80]
00000000: f455 6fbe 04e9 59be 029c 063e af88 2fbe
00000010: 71f3 5fbd d414 4fbe 133b 13be 59cf 863d
00000020: 69ef 15be ecac 14be 1019 ca3c 0e15 2f3e
00000030: 3bf6 bfbd 3228 3c3d 54dc 57be 2f53 d13d
00000040: 03f5 10bd 77e6 2fbc c5d9 2cbe 8d94 203e
00000050: a676 913c eb34 65be 2571 6dbd 68c1 b3bc
00000060: 5b1c 25bd d5d5 02be 9ab8 18bd bd46 0fbe
00000070: deec bebd bc6a 1cbe 3eef 173e 69dc 55bd
00000080: 2113 48bc b841 0e3e 9e7a 3e3b 1d1d 2a3e
00000090: 5ba4 ce3d b2a1 07be d856 02be a0c8 493e
000000a0: 537b 9bbc 91b3 43be 12d1 253e a638 64bc
000000b0: 11ae d0bd 3023 e3bc c2cf c63e 8616 57be
000000c0: 28e2 0a3e a9bd 23be 9fb6 333e a7e1 88bc
000000d0: cc60 6e3e 0c4a 75be 72ce fcbb daa6 febd
000000e0: 9eb5 ffbd d10e 293e d98e 2b3e d107 ea3d
000000f0: feeb 0d3e 4e90 44bd 1caf 40be 0ad6 c0bc
00000100: 67c1 15bd f197 3c3d 7a17 9dbd d205 44be
00000110: 7460 a73c c168 3e3e affc 11be 08fa ddbd
00000120: 9f50 3abe 7077 d1bd 658c 193e fbd3 36be
00000130: 3fe4 26be 9763 02be 6565 cbbb 926c 37bc
-0.23372632 -0.21280295 0.1314545 -0.17141984 -0.054675523 -0.20222789 -0.14378004 0.06582517
-0.14642109 -0.1451909 0.024670154 0.17097875 -0.093731366 0.04593677 -0.21080142 0.10220944
-0.03538991 -0.010736099 -0.16879947 0.15681668 0.017756771 -0.22383468 -0.05796923 -0.02194281
-0.040310245 -0.12776883 -0.037285425 -0.13991828 -0.093225226 -0.15275091 0.14837357 -0.052212153
-0.012211592 0.13892257 0.0029064785 0.16612668 0.10089942 -0.13245276 -0.12728441 0.19705439
-0.018979704 -0.19111468 0.16193035 -0.013929522 -0.101894505 -0.02772674 0.38830382 -0.21004686
0.13562834 -0.15990318 0.17550133 -0.016709162 0.23279113 -0.23954028 -0.00771504 -0.12434168
-0.124858126 0.16509558 0.16753711 0.11427272 0.13859555 -0.047989182 -0.18816799 -0.023539562
-0.036561396 0.04604334 -0.076704934 -0.19142845 0.020431735 0.18594648 -0.14256547 -0.10838705
-0.18194817 -0.10227859 0.14994963 -0.17854302 -0.16298006 -0.12733303 -0.0062071555 -0.011195319

lstm.bias_hh_l0_reverse f4 [80]
00000000: fae7 d8bd 54c9 153e f294 10be cf2a 33be
00000010: 1003 d6ba 892c fa3d 1a2a f5bd 2fb9 d1bd
00000020: 129b 1e3e 43dc 65bd c01c bcbb 34b8 2ebd
00000030: 3d64 a7bd 217a 0dbe ec04 7bbe b44b cd3d
00000040: ef9b 95bd 552c 2ebd 3987 99bd 6469 efbd
00000050: 1b0e 16be 9460 413e c210 1d3d 5054 3e3e
00000060: 3b5f edbd beda 84ba 075c 103e b60b 4e3e
00000070: 926a 39be 1ef1 ad3b 70f7 483d 099e 3ebe
00000080: 2d27 dabc dbe3 043d 45bf 24be 01de 4bbe
00000090: 7ed8 fb3d 6931 1fbe 1da5 10bd d98d a8bd
000000a0: afeb f9bc c018 e3bd 1d7e 5b3e ef04 63be
000000b0: b7b0 243e 6559 8cbb 0088 613e 71f6 273e
000000c0: e20b 123e 50ba a43c 8b47 353e 1a59 643e
000000d0: e4c0 a1bd d9a1 333c 907a 313c 91e3 0e3e
000000e0: 1056 eebe 021a 9ebd 51f6 56bb c78a d63d
000000f0: 2813 21bd 4e8c 253e 7ac6 c2bc 2eb2 b1bd
00000100: aaaa 3dbe 1154 5a3e 2605 9b3d f0f1 da3d
00000110: b735 efbb 011f 21be 80ed 12be 5c46 453e
00000120: 68c9 3f3d 704f b1bd b1b3 8c3b 3cb4 93bd
00000130: 4d55 493d 2ba9 1fbe cb1c 333c a4f8 483e
-0.10591121 0.14627582 -0.14119318 -0.17496799 -0.0016327817 0.12215526 -0.11970921 -0.10240399
0.15488842 -0.05611826 -0.005740732 -0.04265614 -0.08173416 -0.1381612 -0.24513596 0.10024205
-0.073051326 -0.042522747 -0.07496495 -0.116900235 -0.14653818 0.18884498 0.03834606 0.1858685
-0.115904294 -0.0010135991 0.14097606 0.20121655 -0.1810706 0.0053082844 0.0490641 -0.18614973
-0.026630009 0.032443862 -0.16088589 -0.19908907 0.12297152 -0.15546192 -0.035313714 -0.0823018
-0.03050789 -0.11088705 0.21434827 -0.22169851 0.16083036 -0.0042831176 0.22024536 0.16402604
0.14262345 0.020108372 0.17703073 0.22299615 -0.07898119 0.01096388 0.010832444 0.13953997
-0.46550035 -0.07719804 -0.0032800625 0.104756884 -0.03932491 0.16166803 -0.023776282 -0.08676563
-0.18522134 0.21321131 0.07569341 0.10690677 -0.0073001045 -0.15734483 -0.14348412 0.19265121
0.046822935 -0.086577296 0.004293882 -0.07212111 0.049153615 -0.15591876 0.010932158 0.19626099

layer_norm.weight f4 [40]
00000000: da56 963f 330b 833f fef4 aa3f b774 9c3f
00000010: ba59 833f a7dd 8c3f 2407 ad3f c156 993f
00000020: 4b7d 9a3f 6f16 0e40 aa39 893f cf88 883f
00000030: 74b6 953f a7b6 7f3f ec42 ba3f c6e9 7f3f
00000040: 1fb9 8d3f e9a5 813f 81d2 ab3f caa9 7e3f
00000050: e6cb 7d3f 2349 aa3f ffa3 a03f 2577 973f
00000060: f3d0 7f3f 1630 813f d785 b83f 74c3 863f
00000070: 087d 983f 65b4 8e3f 7300 8a3f 3f10 883f
00000080: 0d4f 873f 1782 943f bf5f 813f 2c05 813f
00000090: 1d2b ce3f 3d3b 823f aafa 873f 6718 903f
1.1745255 1.0237793 1.3356016 1.2223119 1.0261757 1.1005143 1.3517804 1.19796
1.2069486 2.2201192 1.0720723 1.0666751 1.1696305 0.9988808 1.4551673 0.99966085
1.107212 1.0128757 1.3423616 0.9947783 0.9913925 1.330357 1.2550048 1.1833235
0.99928206 1.00928 1.4415845 1.0528398 1.1913157 1.1148802 1.0781387 1.0629958
1.0570999 1.16022 1.0107344 1.0079703 1.6106907 1.0174328 1.0623372 1.1257447

layer_norm.bias f4 [40]
00000000: f4cc 823e 433e e7bd e934 bc3e 5465 963e
00000010: 9320 513e cc9b 6f3e 2fbe b6be f036 9a3e
00000020: b667 adbe 3562 22bf a972 603e 3bd6 1abe
00000030: 44b7 8bbe eb95 d3bc f58b e1be 42bb 49bc
00000040: 601d 823e 4b3a 48be 1a45 c73e d147 5a3c
00000050: 0979 2ebd d4a3 b6be 82d7 993e 276e 91be
00000060: 227f 05bd 088d a1bd 232c c83e e92e 24be
00000070: 7a85 763e 82c1 51be 079d 233e 2021 013e
00000080: ea99 0a3e 79df 8dbe e974 b1bd b931 463d
00000090: bafd f9be f551 95bd 3156 123e 9c98 3e3e
0.25546992 -0.11291172 0.36759117 0.29374182 0.20422582 0.23399276 -0.35691974 0.3012004
-0.33868188 -0.634311 0.2191874 -0.15120785 -0.27288258 -0.025828322 -0.4405209 -0.012312712
0.25413036 -0.19553487 0.38919908 0.013322786 -0.042595897 -0.35671866 0.30047232 -0.28404352
-0.032591946 -0.07888228 0.39096174 -0.1603352 0.24074355 -0.20483974 0.1597787 0.12610292
0.13535276 -0.2770956 -0.08664877 0.048387263 -0.4882639 -0.07291023 0.14290692 0.18612903

linear_layers.0.weight f4 [1, 40]
00000000: e9cf 2c3f 24b1 91be 6292 783f a319 453f
00000010: a53f b43e 69ea 083f 7639 7ebf 9733 3d3f
00000020: 65d1 45bf d6aa 05c0 1820 fb3e e979 d8be
00000030: f12e 2ebf 88fc 4ebd 7904 94bf c082 1a3d
00000040: 98bc 0f3f 7387 a0be bc00 7c3f 6881 44bd
00000050: ed58 ebbd 6c56 75bf ccdf 533f 097b 33bf
00000060: c79a 90bd 6ff4 3bbe 79ad 8f3f 60e4 c4be
00000070: d9c8 343f 36d1 0abf 1226 ec3e 3d73 cf3e
00000080: d528 c63e d54f 28bf 879f 55be 3f19 163e
00000090: 3ac3 aebf e98c 53be 45f0 d33e cf6e 153f
0.67504746 -0.2845546 0.9709836 0.76992244 0.35204807 0.5348268 -0.9930643 0.73906845
-0.77272636 -2.088552 0.49047923 -0.4228051 -0.68040377 -0.0505338 -1.1563865 0.03772235
0.56147146 -0.3135334 0.9843862 -0.047974974 -0.114915706 -0.95834994 0.8276336 -0.7010961
-0.070607714 -0.18354963 1.1224815 -0.38455486 0.7061897 -0.5422548 0.46122795 0.40517607
0.38703027 -0.65746814 -0.20861636 0.14658068 -1.3653328 -0.20659222 0.4139425 0.58372205
