notebooks/checkpoints/epochepoch=09-lossepoch_val_loss=4.5831.ckpt (torch, 65288 bytes, 22 tensors)

lstm.weight_ih_l0 f4 [80, 20]
0	0xbe59e140	-0.21277332
1	0xbe29ea30	-0.16593242
2	0xbe10fc63	-0.14158778
3	0xbdef318e	-0.11679374
4	0x3e2f973a	0.17147532
5	0xbd6f03ad	-0.058353115
6	0xbe18cbfc	-0.14921564
7	0x3e267f3f	0.16259478
8	0x3e54c5a5	0.2077852
9	0x3e4d3ace	0.20041963
10	0xbe3493d3	-0.17634515
11	0xbe1cc289	-0.15308584
12	0x3e0cd399	0.13752593
13	0xbe0ba45f	-0.13636921
14	0xbd210edb	-0.039320808
15	0xbdef8f5d	-0.11697266
16	0xbe24b7cd	-0.1608574
17	0xbafc33f3	-0.0019241556
18	0xbdf73fd4	-0.12072721
19	0xbd9f52a6	-0.07779436
20	0xbe5a0003	-0.21289067
21	0xbe1b8e9b	-0.15191118
22	0xba82b4f0	-0.0009972136
23	0xbd085c41	-0.033291105
24	0xbd0521ad	-0.03250282
25	0x3ce2ccc2	0.027685527
26	0x3e2584bb	0.16163914
27	0xbbbb9095	-0.0057240226
28	0x3d933fa1	0.071898706
29	0xbe3c8e96	-0.18413767
30	0xbc0d65c1	-0.008630217
31	0x3e249a4b	0.16074483
32	0xbcc13d5e	-0.023588832
33	0x3d9b5962	0.07585408
34	0xbe4bfa87	-0.19919787
35	0xbdebba3b	-0.1151013
36	0xbdd40845	-0.1035314
37	0x3ce5fcee	0.028074708
38	0x3e5c1954	0.21494037
39	0xbdf4e9ff	-0.11958694
40	0x3e13f43d	0.14448638
41	0x3e1c3b21	0.15256931
42	0x3e6e09fe	0.23245999
43	0x3e596a2d	0.21231909
44	0xbd937845	-0.07200674
45	0x3da2fe0f	0.07958614
46	0xbdd1be10	-0.1024133
47	0xbdaa5e47	-0.08318763
48	0xbba449d1	-0.0050136824
49	0x3e51391d	0.20431943
50	0xbdfa5019	-0.12222309
51	0x3d8bd36d	0.06827436
52	0x3e3a16b4	0.18172723
53	0xbe3115a4	-0.17293411
54	0x3da95ea0	0.082700014
55	0xbe02f9b9	-0.12790574
56	0x3dd90276	0.105961725
57	0x3b88f201	0.0041792397
58	0x3d385878	0.045006245
59	0xbd1a9c28	-0.03774658
60	0x3d8ff9d6	0.07030074
61	0x3cf31011	0.029670747
62	0x3e29f846	0.16598615
63	0x3e4d09f3	0.20023327
64	0xbd988f93	-0.074492596
65	0xbde40c19	-0.1113512
66	0x3d310ed4	0.04322703
67	0xbdb8e906	-0.09028821
68	0xbd5741d6	-0.05255302
69	0x3df4d737	0.119551115
70	0xbd561221	-0.052263383
71	0x3e50bbf7	0.20384203
72	0xbcb92bfc	-0.022603981
73	0xbdecc161	-0.115603216
74	0x3bb95d92	0.0056569064
75	0xbe1a8ae9	-0.15092053
76	0x3d36a1bd	0.04458784
77	0xbdab1149	-0.08352906
78	0xbdb9b112	-0.090669766
79	0x3da6e331	0.08148802
80	0x3e5ebd71	0.21751954
81	0x3e12561a	0.14290658
82	0x3e4a3235	0.19745715
83	0x3e4be854	0.19912845
84	0xbdddaa69	-0.10823519
85	0xbddd78e9	-0.108140774
86	0x3d9b4ace	0.07582627
87	0x3e530906	0.20608911
88	0x3d919432	0.07108344
89	0x3e10a98f	0.14127181
90	0xbe09cfbf	-0.13458155
91	0xbe297854	-0.16549808
92	0xbcb6af03	-0.022300249
93	0x3e343af9	0.17600621
94	0x3d82c658	0.06385487
95	0xbe57258e	-0.2101042
96	0xbe0430bf	-0.1290922
97	0x3dc6d5a3	0.09708717
98	0xbded9afd	-0.11601827
99	0xbe37b9a2	-0.17941907
100	0x3df5d082	0.1200266
101	0x3d3ad457	0.04561266
102	0xbd82677a	-0.06367393
103	0xbdcd45e8	-0.10023099
104	0x3c27ae54	0.010234434
105	0xbda47699	-0.08030433
106	0x3c0f0e0c	0.008731376
107	0x3e13389b	0.14377062
108	0xbe0f5cd5	-0.14000256
109	0x3d4e0d4d	0.050305653
110	0xbcb5bdff	-0.022185324
111	0xbded03de	-0.11573003
112	0xbd8f8931	-0.07008589
113	0xbd4f2f09	-0.050581966
114	0xbd36b372	-0.044604726
115	0xbd8643f6	-0.06555931
116	0x3d9e5421	0.0773089
117	0x3df69261	0.12039638
118	0xbe0f5928	-0.13998854
119	0xbc8c494e	-0.017124798
120	0xbe549447	-0.20759688
121	0x3d9e6207	0.07733541
122	0xbe349b64	-0.17637402
123	0xbd486c1c	-0.048931226
124	0x3cfb6782	0.030689005
125	0x3e4e525c	0.20148605
126	0x3c93316f	0.017967908
127	0xbdcfe624	-0.10151318
128	0x3dcaa206	0.09894185
129	0xbdab81e3	-0.08374383
130	0x3dce1f8f	0.10064613
131	0x3da04b83	0.07826903
132	0xbe4269f9	-0.18985738
133	0x3dc737b2	0.0972742
134	0x3d97a183	0.07403853
135	0x3e0c59dd	0.13706155
136	0xbca9d632	-0.02073202
137	0xbd8c23f6	-0.068427965
138	0xbc9d5637	-0.01920615
139	0x3d8088e5	0.062761106
140	0xbe004ea3	-0.12529998
141	0x3c06b976	0.008222928
142	0xbdf417e2	-0.11918618
143	0xbdcc22e9	-0.09967596
144	0x3e055629	0.13021149
145	0x3e00f120	0.12591982
146	0xbe0d1eca	-0.13781276
147	0x3e27deb3	0.16393547
148	0xbc052369	-0.008126118
149	0x3dc25f46	0.09490828
150	0x3d0480db	0.03234945
151	0xbddc55f9	-0.107585855
152	0xbe5f8f45	-0.21831997
153	0xbe51ff04	-0.20507437
154	0xbe01eb6b	-0.12687461
155	0xbe596209	-0.21228804
156	0x3e42cc94	0.19023353
157	0xbe1da683	-0.1539555
158	0x3dd5ebc2	0.10445358
159	0xbe062851	-0.13101317
160	0xbdbb9470	-0.091591716
161	0xbe1dc7b2	-0.15408209
162	0xbe0f2422	-0.13978627
163	0x3d8c906b	0.06863483
164	0xbe062024	-0.13098198
165	0xbe433504	-0.19063193
166	0x3ccc61bd	0.024948949
167	0x3da1ce7f	0.07900714
168	0xbd970dbb	-0.07375666
169	0xbe148b5c	-0.14506286
170	0xbd954677	-0.07288831
171	0xbe13d1aa	-0.14435449
172	0xbcde5e9b	-0.02714472
173	0x3d975e9d	0.07391093
174	0x3e359289	0.1773168
175	0xbdea3cdf	-0.114373915
176	0xbd95d596	-0.07316129
177	0x3e07e0e6	0.13269386
178	0x3e5c36be	0.21505257
179	0x3df59f47	0.1199327
180	0xbda5ee7c	-0.08102128
181	0x3ca4ea77	0.020131333
182	0xbde4d9e3	-0.11174371
183	0xbe33c49a	-0.17555466
184	0xbd5b09ef	-0.05347627
185	0x3db97ee8	0.090574086
186	0x3e5dbef1	0.2165487
187	0xbd58f7c9	-0.05297068
188	0xbc88a51a	-0.016680289
189	0x3d677485	0.056507606
190	0x3c5d0ac6	0.013491338
191	0x3d111a85	0.03542568
192	0xba396b75	-0.0007073202
193	0x3e09747c	0.13423342
194	0x3e67f3a4	0.22651535
195	0xbe7b03e1	-0.24513198
196	0xbe42ee37	-0.19036184
197	0xbb317323	-0.0027076683
198	0xbc8cec27	-0.01720245
199	0x3cc5fa9f	0.024167357
200	0xbc5bdfef	-0.013420089
201	0xbde4f102	-0.11178781
202	0xbde0cc5f	-0.10976481
203	0x3dcd4d34	0.10024491
204	0x3da9f72c	0.082990974
205	0xbe3dd6fb	-0.1853904
206	0xbddc0d7c	-0.107447594
207	0x3d80a239	0.062809415
208	0x3e75ca56	0.24002966
209	0x3cdb8b4c	0.02679982
210	0x3da41f18	0.08013743
211	0xbe1ae6dc	-0.15127128
212	0xbde3517e	-0.11099528
213	0xbd9450a6	-0.07241945
214	0x3e29fe3a	0.16600886
215	0xbe42c1a9	-0.19019188
216	0x3e110068	0.14160311
217	0xbdfe2119	-0.124086566
218	0x3dcaa96a	0.098955944
219	0x3e1b9710	0.15194345
220	0x3cf570e2	0.029961053
221	0xbe0351eb	-0.12824218
222	0xbe44d290	-0.19220948
223	0xbdead886	-0.1146708
224	0x3d9eaac1	0.077474125
225	0x3d195ef6	0.037444077
226	0xbdcebc92	-0.10094561
227	0xbe148f67	-0.14507829
228	0x3e8a77ce	0.2704453
229	0x3e555f97	0.20837246
230	0x3daabc34	0.08336678
231	0xbdc8bbd2	-0.09801449
232	0xbdca0b5e	-0.09865449
233	0xbe09d794	-0.13461143
234	0x3d762690	0.06009537
235	0x3cee2cbd	0.029074067
236	0xbdcf55b8	-0.101237714
237	0x3e64a69d	0.22329183
238	0x3e036cf8	0.12834537
239	0x3db6e4a9	0.08930332
240	0xbe1fdf65	-0.15612562
241	0x3d2a6b93	0.041606497
242	0xbe11771f	-0.14205597
243	0xbe255ad7	-0.16147934
244	0x3e16a8ae	0.14712784
245	0x3e0b4534	0.13600618
246	0x3e4ae451	0.19813658
247	0x3e25c6e2	0.16189149
248	0xbe482784	-0.19546324
249	0x3e649bf5	0.22325118
250	0x3d4ceb6a	0.050029196
251	0x3df7e43d	0.1210408
252	0x3dcbe9e6	0.09956722
253	0xbdb35a9e	-0.08757518
254	0x3e33eec6	0.17571554
255	0x3e2617b9	0.16219987

lstm.weight_hh_l0 f4 [80, 20]
0	0xbe327053	-0.17425661
1	0xbe31c0f1	-0.17358758
2	0x3dce029a	0.1005909
3	0xbdcc6024	-0.09979275
4	0xbd529bde	-0.051418178
5	0xbdf58a80	-0.119893074
6	0xbe4ae341	-0.19813253
7	0x3d921caa	0.071343735
8	0x3cecba3a	0.028897393
9	0x3e3e81eb	0.18604247
10	0x3e30dfb3	0.17272834
11	0x3e2db61e	0.16964003
12	0x3e11e494	0.14247352
13	0xbd821def	-0.06353366
14	0xbe4d51da	-0.20050755
15	0x3bd6cbba	0.006555048
16	0xbe526282	-0.2054539
17	0xbe5d0cad	-0.21586867
18	0x3dff84c3	0.12476494
19	0xbb7087cd	-0.0036702037
20	0xbe15a348	-0.14613068
21	0x3ddf3d70	0.1090039
22	0xbdaae3d3	-0.08344235
23	0xbddbeb8c	-0.107382864
24	0xbdfe7958	-0.12425488
25	0x3e4751a6	0.1946474
26	0x3d092f3a	0.033492304
27	0x3d764e50	0.06013328
28	0xbe0aa9b6	-0.13541302
29	0x3d1f6b50	0.0389207
30	0x3d4faf1a	0.0507041
31	0xbe2638a4	-0.16232544
32	0x3e5863a1	0.21131755
33	0xbd871dfa	-0.065975145
34	0x3e346fe2	0.17620805
35	0x3b8ed8c4	0.0043593366
36	0xbd818606	-0.06324391
37	0x3e6c968b	0.23104303
38	0x3df4c81c	0.1195223
39	0x3e1915dd	0.14949746
40	0x3e53fc38	0.20701683
41	0xbe451e20	-0.19249773
42	0xbe0287d3	-0.12747125
43	0x3e148560	0.14504004
44	0x3e3388a3	0.17532592
45	0x3e590970	0.21195006
46	0x3e23cb6e	0.15995571
47	0x3e110752	0.14162949
48	0x3d29adde	0.04142558
49	0x3e289984	0.16464812
50	0xbd090b83	-0.033458244
51	0xbe4fe462	-0.20301965
52	0xbe2eaf49	-0.17059053
53	0xbe65df12	-0.22448376
54	0xbd299da3	-0.0414101
55	0xbda03ce3	-0.07824113
56	0xbdf3b649	-0.119000025
57	0x3dbf5a7e	0.09343432
58	0x3e3d2fa3	0.18475203
59	0xbe0cbde5	-0.13744314
60	0xbd9168c5	-0.07100061
61	0xbe3d0e8e	-0.18462583
62	0x3be91ad3	0.0071137934
63	0xbe242cb4	-0.16032678
64	0x3e611593	0.21980886
65	0xbb998156	-0.0046846075
66	0x3de2f266	0.1108139
67	0x3d2a784e	0.041618638
68	0xbca228f1	-0.019794913
69	0x3c882a83	0.016621834
70	0x3de5ef3d	0.11227272
71	0xbe3d8972	-0.18509462
72	0xbde54df3	-0.11196508
73	0xbdfb4107	-0.12268262
74	0x3d92eebb	0.071744405
75	0xbd3fd652	-0.04683525
76	0xbe651ebe	-0.22375008
77	0xbcfcb4a8	-0.030847862
78	0xbe39465d	-0.18093248
79	0x3e202d13	0.15642194
80	0xbc8a10a5	-0.01685364
81	0x3dbfb403	0.093605064
82	0xbe3c1d85	-0.18370636
83	0x3da4e618	0.080516994
84	0xbc2b2231	-0.010445164
85	0x3e02776b	0.12740867
86	0x3e300586	0.17189607
87	0xbe60ffc6	-0.2197257
88	0xbe2949a3	-0.16531996
89	0xbd88e40f	-0.06684124
90	0xbe1f5156	-0.15558371
91	0x3e40cd04	0.18828207
92	0xbe129272	-0.14313677
93	0xbdf92e39	-0.121670194
94	0x3da4fd52	0.080561295
95	0x3e195dca	0.14977184
96	0x3e359e23	0.17736106
97	0x3e56802b	0.2094733
98	0x3e099e82	0.13439372
99	0xbe35f3ab	-0.17768733
100	0x3e33ff2e	0.17577812
101	0xbda90164	-0.08252218
102	0x3dfc6c2e	0.12325321
103	0xbe641ae2	-0.2227588
104	0x3ca9735f	0.020684896
105	0x3d4cb08a	0.04997305
106	0x3e50f438	0.20405662
107	0x3dbec465	0.09314803
108	0x3da6da17	0.08147066
109	0xbe437b20	-0.19089937
110	0xbe4df84f	-0.20114253
111	0x3ddafa24	0.10692242
112	0x3d8168e0	0.063188314
113	0x3c81f2cf	0.01586285
114	0xbe1783ff	-0.14796446
115	0xbd9e2018	-0.07720965
116	0xbdcb7caa	-0.09935887
117	0xbcd155f1	-0.025553675
118	0x3cfd649d	0.030931765
119	0x3e0ec0c8	0.13940728
120	0x3dad0d80	0.084498405
121	0x3e2beaf2	0.16788843
122	0x3e3b551c	0.18294185
123	0x3d7c50bb	0.061600428
124	0x3cc23ff3	0.023712134
125	0x3d84051f	0.06446289
126	0xbe55ec26	-0.20890865
127	0x3dde6502	0.108591095
128	0xbc9ed1a1	-0.019387068
129	0xbe222ad8	-0.15836656
130	0xbceacd28	-0.02866228
131	0xbe08a551	-0.13344313
132	0x3d608836	0.0548174
133	0xbda3027c	-0.07959458
134	0xbdda9003	-0.10671999
135	0x3e0be23b	0.13660519
136	0xbde6cd46	-0.112696216
137	0x3e4c81b3	0.19971351
138	0x3bf33db2	0.007423126
139	0x3c4fb5e2	0.012677642
140	0xbe26593e	-0.1624498
141	0xbe59d2ce	-0.21271822
142	0x3e0ca2b9	0.13733949
143	0x3e23b678	0.15987575
144	0xbdf1ba12	-0.11803068
145	0x3dad7054	0.084686905
146	0xbd9c4267	-0.07629853
147	0xbe0ddf23	-0.13854651
148	0xbe031178	-0.12799633
149	0x3e19cf7a	0.15020552
150	0xbd24b8a2	-0.040215142
151	0x3d99e8d3	0.07515111
152	0x3d225295	0.039629538
153	0xbe539e16	-0.20665774
154	0xbe234bb3	-0.15946846
155	0x3c9d27a5	0.019183943
156	0x3de799cd	0.11308632
157	0xbdeaba6a	-0.11461337
158	0x3d6aca7e	0.057322018
159	0x3e59fad2	0.21287087
160	0x3de19732	0.11015166
161	0x3e2a4a01	0.16629793
162	0x3d844567	0.0645855
163	0xbe1aaba2	-0.15104535
164	0xbd81c82a	-0.063370064
165	0x3da083ea	0.078376606
166	0x3e49582f	0.19662546
167	0x3d73a006	0.059478782
168	0x3e56cad7	0.20975815
169	0xbb954d52	-0.0045563364
170	0xbe3d2ce8	-0.18474162
171	0x3e10308c	0.14081019
172	0x3d0dd4c8	0.034626752
173	0x3e284646	0.16433057
174	0x3da01b32	0.07817687
175	0x3e441082	0.19146922
176	0x3df95bf5	0.121757425
177	0xbddeaba2	-0.1087258
178	0xbe163a01	-0.14670564
179	0x3da2e1a1	0.079531915
180	0x3e816b8b	0.2527736
181	0x3dedb07f	0.116059296
182	0xbe59483e	-0.21218964
183	0xbd460ca4	-0.0483519
184	0x3e14d00a	0.14532486
185	0xbdf60c4a	-0.12014063
186	0xbe145c62	-0.14488366
187	0x3df68e8f	0.1203891
188	0x3d64c4b1	0.055851642
189	0x3e4c9b67	0.19981156
190	0x3e5b882c	0.21438664
191	0xbdc6fea0	-0.097165346
192	0xbe20d98f	-0.15707992
193	0xbdf3ff8c	-0.11913976
194	0x3de760bd	0.11297748
195	0x3e3a3fc7	0.18188392
196	0x3d4d708d	0.050156165
197	0x3c73324c	0.014843535
198	0x3e0d88aa	0.13821664
199	0x3e00a96e	0.12564632
200	0xbd812bad	-0.063071586
201	0xbd9abaf0	-0.07555187
202	0x3e0a0d4a	0.13481632
203	0x3df8801a	0.121338084
204	0x3cb6b5b5	0.022303442
205	0xbdc566df	-0.09638762
206	0xbc7b9ef0	-0.015357718
207	0xbd4f590b	-0.050622027
208	0xbe439f1d	-0.19103666
209	0x3ddb94af	0.107217185
210	0xbd89784b	-0.06712397
211	0xbdcd69b1	-0.10029925
212	0xbd13a29d	-0.036043752
213	0x3d863781	0.06553555
214	0xba8df23a	-0.0010829635
215	0xbe4d8ff8	-0.20074451
216	0x3d5170ff	0.051133152
217	0x3d2939c0	0.04131484
218	0xbde103e9	-0.10987074
219	0xbd1a5a0e	-0.03768354
220	0x3e3696e5	0.17830999
221	0x3e1da6fa	0.15395728
222	0x3da45c6a	0.08025439
223	0x3d87ce12	0.06631102
224	0x3decb704	0.11558345
225	0x3e54973e	0.2076082
226	0xbd4cf973	-0.05004258
227	0xbe3f8143	-0.18701653
228	0xbca6becf	-0.020354657
229	0x3d0e4560	0.03473413
230	0xbdf6d40d	-0.12052164
231	0x3d77103b	0.060318213
232	0xbe671fa0	-0.22570658
233	0x3e2d1eec	0.16906327
234	0xbddf9424	-0.109169275
235	0x3e4c0c27	0.19926511
236	0xbe437b34	-0.19089967
237	0x3e1e3df4	0.1545332
238	0x3e19ac52	0.15007141
239	0x3cff11fd	0.031136507
240	0x3dfdad70	0.12386596
241	0xbd27ed73	-0.040997934
242	0xbe0392b4	-0.12848932
243	0xbd02b65d	-0.031912196
244	0xbccc393c	-0.024929635
245	0xbe38359b	-0.17989199
246	0x3c423703	0.011853936
247	0xbe642710	-0.22280526
248	0xbd834f5c	-0.06411621
249	0xbe37a2dc	-0.1793322
250	0x3d8888cd	0.06666718
251	0x3df64818	0.120254695
252	0xbe5659bd	-0.2093267
253	0x3cff4d30	0.031164736
254	0xbdd977f5	-0.10618583
255	0x3dc23226	0.09482221

lstm.bias_ih_l0 f4 [80]
0	0x3d02335a	0.031787254
1	0xbd9da499	-0.0769741
2	0x3e0c8368	0.13722003
3	0x3e052216	0.13001284
4	0xbe051af5	-0.12998565
5	0xbdb5e67e	-0.088818535
6	0x3d87d6d2	0.066327706
7	0xbe086739	-0.13320626
8	0xbe280006	-0.16406259
9	0xbdd14759	-0.102186866
10	0x3e0475b8	0.12935531
11	0x3e3b639a	0.18299714
12	0x3e2a0244	0.16602427
13	0x3d989334	0.07449952
14	0x3ba06238	0.004894521
15	0xbe0e9e06	-0.13927469
16	0xbd27710c	-0.040879294
17	0xbb6a937b	-0.0035793472
18	0xbd33ff3d	-0.043944586
19	0x3da77094	0.081757694
20	0x3e2ef5b5	0.17085917
21	0xbe04e70d	-0.12978764
22	0xbde165d2	-0.11005749
23	0xbc4bde30	-0.01244311
24	0x3e1cd436	0.15315327
25	0x3e63c37b	0.22242539
26	0xbcbdabc3	-0.023153191
27	0x3d8319ef	0.06401431
28	0xbe21e87a	-0.15811339
29	0x3ecc001d	0.39843836
30	0xbc3e7724	-0.011625085
31	0x3d875908	0.06608778
32	0x3e89ef80	0.26940536
33	0x3f3f4b11	0.7472392
34	0x3c1c5697	0.009542129
35	0xbe4aab26	-0.1979185
36	0x3d806bf1	0.06270588
37	0x3de322d9	0.11090631
38	0x3e63b703	0.22237782
39	0xbdc09462	-0.09403302
40	0x3da21cf3	0.07915678
41	0x3e2f5946	0.17123899
42	0xbeaf8b4c	-0.34285963
43	0x3e27b443	0.16377358
44	0xbd8944c9	-0.06702573
45	0xbc5466a0	-0.012963921
46	0xbdc2a2e0	-0.09503722
47	0xbe5040c0	-0.203372
48	0xbe0aacca	-0.13542476
49	0xbd3fe16c	-0.04684584
50	0xbd01c9a2	-0.031686433
51	0x3d38f29f	0.045153257
52	0xbdd9f337	-0.10642093
53	0x3d506449	0.05087689
54	0x3d76a674	0.060217336
55	0xbd80bafe	-0.06285666
56	0xbea21ee4	-0.31664193
57	0xbe4829b5	-0.1954716
58	0xbe0968b2	-0.13418844
59	0x3d79e6ff	0.06101131
60	0x3dab95f6	0.08378212
61	0xbd8da480	-0.069161415
62	0xbe23551e	-0.15950438
63	0x3e6659ef	0.22495244
64	0x3d77b21d	0.060472596
65	0x3e5adc9f	0.21373223
66	0xbbfc6fc2	-0.0077037523
67	0xbdc4c920	-0.09608674
68	0xbdc44f74	-0.09585467
69	0xbdca8aff	-0.09889793
70	0x3e8cba77	0.2748601
71	0x3df46e36	0.119350836
72	0x3e6d9229	0.23200287
73	0x3c2aacf7	0.010417215
74	0x3e2982b8	0.16553771
75	0xbd5d5acd	-0.054041672
76	0x3e104b00	0.1409111
77	0x3e437a59	0.1908964
78	0x3d9040dc	0.07043621
79	0xbe3484cf	-0.17628787

lstm.bias_hh_l0 f4 [80]
0	0x3e677cdd	0.22606225
1	0xbdf11a6e	-0.11772619
2	0x3e082496	0.13295206
3	0x3db64801	0.089004524
4	0xbd9a8eda	-0.07546778
5	0x3dad17dc	0.084518164
6	0x3ca5dac1	0.020245912
7	0x3cd8b9c2	0.026455764
8	0xbd1bf826	-0.03807845
9	0x3e04b7e5	0.12960775
10	0x3de6600a	0.11248787
11	0xbd0033d6	-0.031299435
12	0xbe1da416	-0.15394625
13	0xbe2c6443	-0.16835122
14	0xbce256e6	-0.027629327
15	0xbe00acea	-0.12565961
16	0x3c902b13	0.017598664
17	0x3e349797	0.17635952
18	0xbe1cd995	-0.15317376
19	0xbe2d3be1	-0.16917373
20	0xbe180700	-0.1484642
21	0xbe3a0a05	-0.18167885
22	0x3e2b2598	0.1671356
23	0x3e08b43e	0.13350007
24	0xbe648913	-0.22317915
25	0xbd6db313	-0.058032107
26	0x3d897980	0.067126274
27	0x3c8a017e	0.016846415
28	0xbe03ec59	-0.12883128
29	0x3ee3cb4e	0.44491047
30	0x3e91f807	0.28509542
31	0x3d8a7623	0.06760814
32	0x3d027a4d	0.031854916
33	0x3f8dda70	1.1082287
34	0x3c89910d	0.016792798
35	0xbe32507e	-0.17413518
36	0x3e1bfcb7	0.15233122
37	0x3e9b698a	0.30353957
38	0xbd5f4eee	-0.054518633
39	0x3d79cd4c	0.060986802
40	0xbd1e457f	-0.038640495
41	0x3e4c8435	0.19972308
42	0xbdef1a35	-0.116749205
43	0xbe2a7125	-0.16644724
44	0xbde522a2	-0.11188246
45	0xbe8d16bc	-0.27556407
46	0xbea3931b	-0.3194817
47	0xbd316c3b	-0.043316107
48	0x3dc9d17d	0.0985441
49	0xbcfdb9f3	-0.030972457
50	0x3dcf2f03	0.10116389
51	0xbe7ff69a	-0.24996415
52	0xbe30fbfd	-0.17283626
53	0xbe071152	-0.13190201
54	0xbe71ccdb	-0.23613302
55	0x3db5ecff	0.08883094
56	0xbe9a261c	-0.301072
57	0x3e2e59c8	0.17026436
58	0x3e7b4f1a	0.24541894
59	0xbd09fe42	-0.033689745
60	0xbcd98340	-0.026551843
61	0xbd82d974	-0.06389132
62	0x3e2ed7e5	0.17074545
63	0x3dab0059	0.08349676
64	0x3d4aa000	0.049468994
65	0xbe3eee10	-0.18645501
66	0x3da3f812	0.080063
67	0x3c1d6b35	0.00960808
68	0xbdc92d93	-0.09823146
69	0x3e4719ea	0.19443479
70	0x3e70d835	0.23519976
71	0x3e99a844	0.3001119
72	0x3e13499d	0.1438355
73	0x3e755084	0.23956496
74	0xbd9cc3c7	-0.07654529
75	0x3e3cf0cc	0.18451232
76	0x3d368579	0.044560883
77	0xbd0de5a6	-0.034642838
78	0xbe0192db	-0.12653677
79	0x3db12104	0.08648875

lstm.weight_ih_l0_reverse f4 [80, 20]
0	0x3d558685	0.05213024
1	0x3e3fdb2b	0.1873595
2	0xbd2efe97	-0.042723265
3	0xbcc8a362	-0.02449197
4	0xbd22ab57	-0.039714184
5	0xbc4fb49b	-0.012677337
6	0x3ca1a17c	0.019730322
7	0xbe04275c	-0.1290564
8	0x3c9dbeb9	0.019255983
9	0xbda5d1af	-0.080966346
10	0xbd3b86f0	-0.045782983
11	0xbd9cbaf8	-0.07652849
12	0xbe16b747	-0.14718352
13	0xbd1b379f	-0.03789484
14	0xbdc3b729	-0.095564194
15	0xbd6da8fe	-0.05802249
16	0xbe51cab1	-0.20487477
17	0x3e217c5f	0.157701
18	0x3dd0ec8f	0.1020137
19	0x3de9c3ce	0.114143
20	0xbd816e9e	-0.06319927
21	0xbdf74a85	-0.1207476
22	0x3ddfe1f7	0.10931771
23	0xbda15136	-0.07876818
24	0x3dbcd88c	0.092209905
25	0xbe4dc5b0	-0.20094943
26	0x3b946848	0.004529033
27	0xbcb0d3a5	-0.021585295
28	0x3e2c5dd5	0.16832669
29	0xbe5635c7	-0.20918952
30	0xbca195d8	-0.019724771
31	0xbdef9b2b	-0.11699518
32	0xbe1b6547	-0.15175353
33	0xbc44c615	-0.012010117
34	0x3b8fc104	0.004387023
35	0xbe0d40dc	-0.13794273
36	0x3df5d2f3	0.12003126
37	0xbd6219f7	-0.055200543
38	0x3e1d19d7	0.15341888
39	0xbe1d0ca1	-0.15336849
40	0x3d847ecd	0.06469498
41	0xbd81dd3d	-0.06341026
42	0xbe492be3	-0.19645648
43	0x3d5c7b96	0.0538288
44	0x3d8244e0	0.06360793
45	0xbe2a3b12	-0.16624096
46	0x3e6ef20e	0.23334524
47	0xbd88fc46	-0.06688742
48	0x3d8cb7ed	0.068710186
49	0x3d998dbc	0.07497737
50	0x3dd3756a	0.10325129
51	0x3e425ab6	0.18979916
52	0xbc1650b2	-0.009174513
53	0xbe42b39f	-0.19013833
54	0x3e275371	0.16340424
55	0xbdcf90da	-0.1013505
56	0x3dac7048	0.084198534
57	0x3dca2b01	0.098714836
58	0xbdab11e4	-0.08353022
59	0xbe475f0b	-0.1946985
60	0xbdfa1c74	-0.12212458
61	0xbdaf9634	-0.08573571
62	0x3e07903a	0.13238612
63	0xbd9bbea7	-0.076047234
64	0x3d8859fa	0.06657787
65	0xbddeb212	-0.10873808
66	0x3e110472	0.14161852
67	0x3e28019e	0.16406867
68	0xbe01aae7	-0.1266285
69	0xbd00a828	-0.031410366
70	0x3e22b621	0.15889789
71	0x3e1fd442	0.15608314
72	0xbd9408fe	-0.072282776
73	0x3dea19e5	0.1143072
74	0x3d998610	0.074962735
75	0x3e5bc7f5	0.21462996
76	0x3c8923f6	0.01674078
77	0x3d912d2c	0.07088694
78	0xbe0f312c	-0.13983601
79	0x3e414dcc	0.18877333
80	0x3dcd02e6	0.100103185
81	0xbe4d8ba1	-0.20072795
82	0x3d6da9a3	0.058023106
83	0x3d7b2c68	0.061321646
84	0x3d5787df	0.05261981
85	0xbdaf06b2	-0.08546199
86	0x3e209521	0.15681888
87	0xbe1bb0aa	-0.1520411
88	0x3dfd369d	0.12363932
89	0x3e5184d1	0.20460822
90	0x3c9b0140	0.018921494
91	0xbe0bb0f7	-0.13641725
92	0xbe571786	-0.21005067
93	0x3d7ab1d3	0.061204743
94	0x3df34aaa	0.118794754
95	0x3df36801	0.118850715
96	0xbe0eee79	-0.13958158
97	0x3e0bc5f6	0.13649735
98	0x3dd5228a	0.104069784
99	0x3dd6b860	0.104843855
100	0x3d2674e4	0.04063882
101	0x3e364d89	0.17803015
102	0x3e4fd82b	0.20297305
103	0xbe3ad744	-0.1824618
104	0xbd791175	-0.060807664
105	0xbe1dcc6d	-0.15410013
106	0x3e025c5d	0.12730546
107	0xbe281ee5	-0.16418035
108	0xbe093202	-0.13397983
109	0x3dd146a5	0.102185525
110	0xbe400bf7	-0.18754564
111	0xbe047979	-0.12936963
112	0xbe5b9175	-0.21442206
113	0x3d9ac82f	0.07557713
114	0x3d3428ba	0.043984152
115	0x3dddd609	0.108318396
116	0x3e0e63f3	0.13905315
117	0xbde40775	-0.11134235
118	0xbc366f78	-0.011134975
119	0xbe5fa7ed	-0.21841402
120	0x3bdda12f	0.0067635993
121	0x3e623168	0.2208916
122	0x3d3aec6d	0.04563563
123	0xbd59ad77	-0.053143945
124	0x3e4239ba	0.18967333
125	0x3c3d9bfd	0.011572835
126	0xbdd8c3aa	-0.10584195
127	0xbcd7e410	-0.026353866
128	0x3e401e15	0.18761475
129	0x3e3f4cc0	0.18681622
130	0x3deabf96	0.11462323
131	0x3e5bfc8e	0.2148306
132	0x3d7d0c54	0.061779335
133	0xbd9453a4	-0.07242516
134	0xbe214c5a	-0.15751782
135	0x3d63e5c0	0.05563903
136	0xbcd74929	-0.026280003
137	0xbcaca39c	-0.021074109
138	0xbe4f4e97	-0.20244823
139	0x3d9d5ad2	0.07683338
140	0xbdded93c	-0.10881278
141	0xbe38d6d5	-0.18050702
142	0xbe45b80a	-0.19308487
143	0xbe3adc77	-0.18248163
144	0xbe04a1fa	-0.12952414
145	0x3dcd186d	0.100144245
146	0xbd2e303d	-0.042526472
147	0xbe1e29ac	-0.15445584
148	0xbc1984ed	-0.009370071
149	0xbd2d147c	-0.042255864
150	0xbe27fef5	-0.16405852
151	0xbde8f6d7	-0.11375206
152	0x3e2be34a	0.16785923
153	0x3e0ddb9c	0.13853306
154	0xbe3da8d3	-0.18521433
155	0xbdabac1f	-0.08382439
156	0x3e16bc2a	0.14720216
157	0xbd344182	-0.044007786
158	0xbd4edef2	-0.050505586
159	0x3d8445e1	0.06458641
160	0xbdfc0df6	-0.1230735
161	0xbe2c0201	-0.1679764
162	0x3e4d90ea	0.20074812
163	0xbe1260ab	-0.14294688
164	0x3e3eb03d	0.18621917
165	0x3e3e9454	0.1861127
166	0x3e22c5c3	0.15895753
167	0xbe5a0d03	-0.21294026
168	0xbc6fc40e	-0.014634145
169	0x3e18f600	0.14937592
170	0x3d6720c2	0.056427725
171	0x3e217188	0.15765965
172	0xbc96bf71	-0.018401833
173	0x3e11e0d3	0.1424592
174	0xbe1c05bb	-0.15236561
175	0x3ddd1a29	0.10796005
176	0x3cc41b1b	0.023938706
177	0x3e005f8c	0.12536448
178	0xbb75dc6f	-0.0037515422
179	0x3dd5c19d	0.104373194
180	0xbe1cfa0e	-0.15329763
181	0x3d8ebc14	0.06969467
182	0x3c9007bc	0.017581813
183	0xbd1c34c0	-0.038136244
184	0xbe58a85b	-0.21157973
185	0xbe27e645	-0.16396435
186	0x3dfdf106	0.12399487
187	0x3d3af7b3	0.04564638
188	0x3c6a53e8	0.014302231
189	0x3e234931	0.15945889
190	0xbd47a04a	-0.048736848
191	0x3dfa847d	0.122323014
192	0x3e1a89bb	0.15091603
193	0xbe2b8b2b	-0.16752307
194	0xbe3213aa	-0.17390314
195	0x3d0eeef2	0.034895845
196	0xbdd774c5	-0.10520319
197	0xbe265bd8	-0.16245973
198	0xbc158e42	-0.009128155
199	0xbe15cc51	-0.14628722
200	0x3e2dadae	0.16960785
201	0x3e205869	0.15658726
202	0x3e2da3e1	0.16957046
203	0xbdf584f0	-0.119882464
204	0x3dbe4dc4	0.09292176
205	0x3e08c838	0.13357627
206	0x3e5c0d26	0.2148939
207	0x3e2021b5	0.15637858
208	0x3b9f2a4c	0.004857337
209	0xbdcfa1f0	-0.10138309
210	0xbe136798	-0.14394987
211	0xbe429f63	-0.19006114
212	0x3bc7006a	0.0060730474
213	0x3dfa61c5	0.12225679
214	0xbd8bbb41	-0.06822825
215	0xbe0ef0b6	-0.13959011
216	0xbd85e5f2	-0.06537999
217	0x3e191a01	0.14951326
218	0xbe47e7d0	-0.19522023
219	0x3e4cd471	0.20002915
220	0xbe0088e1	-0.12552215
221	0xbdd3e649	-0.10346658
222	0xbe083652	-0.13301972
223	0xbc438dc0	-0.011935651
224	0xbe00dfa6	-0.12585315
225	0xbde830a2	-0.11337401
226	0xbe49ac64	-0.19694668
227	0xbd310670	-0.04321903
228	0x3e35fc1b	0.17771952
229	0x3df881cb	0.12134131
230	0x3e3a04b1	0.18165852
231	0x3d5c843a	0.05383704
232	0xbe65c6d9	-0.22439136
233	0x3e02192b	0.12704913
234	0x3e34effc	0.17669672
235	0xbcf8365d	-0.03029936
236	0xbe3ed7c3	-0.18636994
237	0x3de8a47b	0.11359497
238	0x3e496d04	0.19670492
239	0xbd3f33ff	-0.046680447
240	0x3cb924a9	0.022600489
241	0xbe2353cc	-0.15949935
242	0xbbe5b19f	-0.0070096995
243	0xbdff1f7a	-0.124571756
244	0xbdc154d7	-0.0944001
245	0x3e55ab13	0.20866041
246	0xbe56e70f	-0.2098658
247	0x3d47fd49	0.048825536
248	0xbe5f9384	-0.21833616
249	0xbc8d88f4	-0.017277218
250	0xbe5dadb1	-0.2164829
251	0x3e26451e	0.16237304
252	0x3d8b2f94	0.06796184
253	0xbe02eab4	-0.12784845
254	0xbde6abf1	-0.11263264
255	0x3e267d12	0.16258648

lstm.weight_hh_l0_reverse f4 [80, 20]
0	0x3e2bf736	0.16793522
1	0x3d3b59e1	0.045740012
2	0xbd42b48c	-0.047535464
3	0xbdaad55a	-0.08341475
4	0x3e60928e	0.21930906
5	0xbd21ef37	-0.039534774
6	0x3e2eff81	0.17089655
7	0xbe398572	-0.18117312
8	0x3e2e07db	0.16995184
9	0x3e24e8dc	0.16104454
10	0x3cea9002	0.028633121
11	0xbe30fefe	-0.17284772
12	0xbc7abfde	-0.015304534
13	0x3d8de15d	0.0692775
14	0x3dae701a	0.085174754
15	0xbcc4d8d8	-0.02402918
16	0xbe5cbf49	-0.21557344
17	0x3d11cb31	0.03559417
18	0xbe25e0dc	-0.16199058
19	0x3b0a6925	0.00211198
20	0x3e32461a	0.17409554
21	0xbe26f8a4	-0.16305786
22	0xbd8ec58e	-0.06971274
23	0xbe5afc11	-0.21385218
24	0x3e2496da	0.1607317
25	0x3d062550	0.032750428
26	0xbe1cbf95	-0.15307458
27	0xbe34a76c	-0.17641991
28	0x3d730139	0.059327338
29	0xbd325881	-0.043541435
30	0x3d21f4f5	0.03954025
31	0xbe11b89c	-0.14230579
32	0x3de85dca	0.11346014
33	0xbe10916d	-0.14117976
34	0x3d6cea78	0.057840794
35	0x3c8447f4	0.016147591
36	0xbe642f25	-0.22283609
37	0x3e41c6db	0.18923514
38	0x3e22bedf	0.15893124
39	0xbde75bb1	-0.112967856
40	0xbe63236c	-0.22181481
41	0xbd914314	-0.07092872
42	0xbd1094aa	-0.035298027
43	0x3c15c724	0.009141717
44	0xbbb978b9	-0.005660143
45	0x3e5feec2	0.21868423
46	0x3e4c7466	0.19966277
47	0xbcfbe0af	-0.030746786
48	0xbcd0cb68	-0.025487617
49	0xbd6dcf77	-0.058059182
50	0xbdca19fd	-0.09868238
51	0x3de2c37d	0.11072443
52	0xbdab6b6b	-0.08370098
53	0xbe49630f	-0.19666694
54	0x3e062510	0.13100076
55	0xbd19fa49	-0.037592206
56	0xbdcd8b26	-0.10036306
57	0x3dd48dfe	0.10378645
58	0x3e5a1cca	0.21300045
59	0xbd8ba1e7	-0.0681799
60	0xbd40265a	-0.046911575
61	0x3d76c680	0.060247898
62	0xbd7954b1	-0.060871784
63	0xbd65f44d	-0.056141187
64	0xbd4df21e	-0.05027973
65	0x3e0e633c	0.13905042
66	0xbe0dd25f	-0.13849781
67	0xbcfd0730	-0.030887216
68	0xbe44f717	-0.19234882
69	0x3d25bf71	0.040465776
70	0xbda1662b	-0.07880815
71	0xbe183b70	-0.14866424
72	0x3e2f7b4b	0.17136876
73	0xbd6643a7	-0.056216862
74	0xbdf7447f	-0.120736115
75	0x3c850bf4	0.016241051
76	0xbe46e03d	-0.19421478
77	0x3e0e589b	0.13900988
78	0x3e3b2da0	0.18279123
79	0x3d80e47a	0.062935784
80	0xbd2cccc6	-0.042187475
81	0xbe010fda	-0.12603703
82	0xbd936b74	-0.071982294
83	0xbe2d5b35	-0.16929324
84	0x3e094b2c	0.13407582
85	0xbe36799b	-0.17819826
86	0x3d39ae18	0.045332044
87	0x3d8f3aba	0.06993623
88	0xbdd90ff3	-0.10598745
89	0x3d668b19	0.056284998
90	0xbde98e3a	-0.11404081
91	0x3e125c20	0.14292955
92	0x3e1498a7	0.14511357
93	0x3d244d17	0.04011258
94	0x3e025ac8	0.12729943
95	0xbcfdc18d	-0.030976081
96	0x3e513073	0.20428638
97	0x3be1bc38	0.0068888925
98	0x3d87657f	0.06611156
99	0xbd96d81d	-0.07365439
100	0xbc40cf3f	-0.011768161
101	0xbd9eefa6	-0.07760553
102	0x3e5f6c6c	0.21818703
103	0xbe0d20f7	-0.13782106
104	0xbab11c56	-0.0013512473
105	0xbda6f8c8	-0.0815292
106	0xbd3dc6ec	-0.046332285
107	0xbda1f1d7	-0.079074554
108	0x3dc2d22d	0.09512744
109	0xbe27d04b	-0.16388051
110	0x3de579af	0.1120485
111	0x3ca940fd	0.020660872
112	0x3e5255a6	0.20540485
113	0xbd1772ee	-0.03697484
114	0xbd0ff632	-0.0351469
115	0x3d9afd59	0.075678535
116	0xbd018102	-0.031617172
117	0x3d5cd97a	0.05391834
118	0x3dfa98f9	0.122362085
119	0x3e0eb882	0.13937572
120	0x3e61ebc5	0.22062595
121	0x3d5e2a44	0.054239526
122	0xbdfbf097	-0.12301748
123	0x3ca2d3fd	0.019876475
124	0x3e639cb4	0.22227746
125	0x3c48fc35	0.012267162
126	0x3df03b32	0.117300406
127	0xbddbc808	-0.10731512
128	0x3dcc55f0	0.09977329
129	0xbe56fe54	-0.20995456
130	0x3e61f2ba	0.22065249
131	0x3c15daf2	0.009146439
132	0xbd39c6a2	-0.045355447
133	0xbe2b70f0	-0.16742301
134	0xbddfb008	-0.10922247
135	0x3e5fc637	0.21852957
136	0x3dff4090	0.12463486
137	0x3bf245e9	0.007393588
138	0x3db3b094	0.08773914
139	0xbe04ab3f	-0.1295595
140	0xbe28dd31	-0.16490628
141	0x3e3fee0a	0.18743148
142	0x3b1284d3	0.0022357001
143	0xbe3178db	-0.17331259
144	0xbd83f58d	-0.064433195
145	0xbda9f93a	-0.08299489
146	0x3cf26802	0.02959061
147	0x3e31518e	0.17316267
148	0x3d2b7f3c	0.041869387
149	0x3ce470fb	0.027885905
150	0xbd9438ed	-0.0723742
151	0xbe57d7be	-0.21078393
152	0x3e5912e7	0.21198617
153	0x3c1cab22	0.009562286
154	0xbe3a4606	-0.18190774
155	0xbe15092e	-0.14554283
156	0xbd0527bb	-0.032508593
157	0x3e4bf162	0.19916299
158	0xbd229cd8	-0.03970036
159	0x3e215dda	0.15758458
160	0x3c0766eb	0.008264284
161	0xbdec879b	-0.11549302
162	0x3e2c8609	0.16848005
163	0xbdf77609	-0.1208306
164	0xbe370bda	-0.17875615
165	0xbd907f8a	-0.07055576
166	0x3cdc8925	0.026920864
167	0xbcedb00d	-0.029014612
168	0x3e0f7936	0.14011082
169	0xbde80c11	-0.113304265
170	0x3e066974	0.13126165
171	0x3c33215a	0.010933245
172	0xbe2d65c2	-0.16933349
173	0x3da4f360	0.080542326
174	0xbe144a02	-0.14481357
175	0x3c824565	0.01590223
176	0x3d717d93	0.058957648
177	0xbe4f528c	-0.20246333
178	0xbb8bba91	-0.004264184
179	0x3e3e70b7	0.18597685
180	0x3e4efcf1	0.20213677
181	0xbc0ea524	-0.008706365
182	0xbde8fee3	-0.11376741
183	0xbd7bd052	-0.061477967
184	0x3e3a2b47	0.18180571
185	0xbe5de71e	-0.21670195
186	0x3dddbb9a	0.10826798
187	0x3e6a6142	0.22888663
188	0xbe192820	-0.14956713
189	0x3e639dd7	0.2222818
190	0xbbe020bf	-0.006839841
191	0x3e5743e9	0.21022
192	0x3e0b67f2	0.1361387
193	0x3e135faa	0.14391962
194	0xbde83655	-0.11338488
195	0x3dc2ebd3	0.09517636
196	0xbdfadbe7	-0.12248974
197	0x3d77dd10	0.060513556
198	0x3d1410bb	0.036148768
199	0xbd87f19e	-0.06637882
200	0x3d839ad5	0.06426016
201	0xbd096c69	-0.033550654
202	0x3d4f604a	0.050628938
203	0xbdac4e95	-0.08413426
204	0x3cc01a0a	0.023449916
205	0x3c49b620	0.012311488
206	0xbc93b84e	-0.01803222
207	0xbe34f1ad	-0.17670317
208	0xbd36ab46	-0.044596933
209	0xbe03f4fc	-0.12886423
210	0xbe20de09	-0.157097
211	0xbc9a1ff4	-0.018814065
212	0xbaa8d6ef	-0.0012881438
213	0xbd257f2c	-0.040404484
214	0xbcf4cf37	-0.029883964
215	0x3da22e29	0.079189606
216	0x3e54fb09	0.20798887
217	0x3d8ffabc	0.07030246
218	0xbe653e77	-0.2238711
219	0x3dc4f8b4	0.09617749
220	0x3d3f5f81	0.04672194
221	0x3da7b71c	0.08189222
222	0x3db6b3a6	0.08920984
223	0x3d1b095b	0.03785072
224	0x3d0dd2e6	0.034624957
225	0x3d4aebe2	0.04954136
226	0xbe083759	-0.13302363
227	0xbca3614a	-0.019943852
228	0x3dbcabdd	0.09212468
229	0x3c0f2396	0.008736512
230	0xbc83c111	-0.016083272
231	0xbe3eae0f	-0.18621086
232	0xbd96d454	-0.07364717
233	0x3e2a90f7	0.16656862
234	0xbdbb7b16	-0.09154336
235	0x3e02675e	0.12734744
236	0x3d9b79e6	0.0759161
237	0x3e39a0f3	0.18127804
238	0x3d1d2ced	0.038372923
239	0x3e593619	0.21212043
240	0xbd0ba11d	-0.034089196
241	0xbcddf9f3	-0.027096724
242	0xbe0462a4	-0.12928253
243	0x3d4c9934	0.049950793
244	0xbe5b4560	-0.21413183
245	0xbe0876a0	-0.13326502
246	0x3e535852	0.2063916
247	0xbe4713a5	-0.19441088
248	0xbe41457f	-0.18874167
249	0x3e5afb67	0.21384965
250	0x3d88034e	0.06641255
251	0x3dd06b8d	0.10176764
252	0xbdd1dae9	-0.10246832
253	0x3e4db04e	0.20086786
254	0x3e3b40f0	0.1828649
255	0xbd29b194	-0.041429117

lstm.bias_ih_l0_reverse f4 [80]
0	0xbe282a71	-0.1642244
1	0xbdf78efb	-0.12087818
2	0x3e33aa2b	0.17545383
3	0x3d64013a	0.055665232
4	0xbda4065f	-0.08009028
5	0xbe366dd6	-0.17815337
6	0xbdc18ea9	-0.094510384
7	0x3d94ed48	0.0727182
8	0xbb9143cb	-0.0044331304
9	0x3cf2e43d	0.029649848
10	0xbbc90b39	-0.006135371
11	0x3a73b6b4	0.0009296939
12	0xbbd3e415	-0.0064663985
13	0xbe21a889	-0.15786947
14	0xbd1f3ce3	-0.038876425
15	0x3df8f687	0.12156396
16	0x3c8208f1	0.015873404
17	0x3c006087	0.007835514
18	0x3d7ddba5	0.061977047
19	0xbd73320e	-0.059373908
20	0x3cce9776	0.025218707
21	0x3e349de6	0.17638358
22	0x3dfa4fff	0.12222289
23	0x3dc90971	0.09816254
24	0x3e1ddef6	0.15417084
25	0xbc574027	-0.013137854
26	0xbd9ff985	-0.07811264
27	0xbd37c62b	-0.044866722
28	0xbe104cdb	-0.14091818
29	0x3e3bc7cc	0.18337935
30	0xbe2bf822	-0.16793874
31	0x3d995194	0.07486263
32	0xbd3dacb6	-0.046307288
33	0x3dfeb087	0.12436014
34	0xbdc0f004	-0.09420779
35	0xbe34dc74	-0.17662221
36	0xbe42131d	-0.18952604
37	0xbe5bff26	-0.2148405
38	0xbe34446a	-0.17604223
39	0x3e251520	0.1612134
40	0x3df142c4	0.11780313
41	0xbd326704	-0.043555275
42	0xbd7dc864	-0.061958686
43	0x3e4e1996	0.20126948
44	0x3dcf8a48	0.10133797
45	0x3c8eed12	0.017447028
46	0x3e3e16ce	0.18563387
47	0x3d435f58	0.04769835
48	0xbc661424	-0.014042888
49	0xbe9d0eb6	-0.30675286
50	0x3d15e129	0.036591683
51	0xbb0d99c1	-0.0021606537
52	0xbe592425	-0.21205194
53	0x3e04df0d	0.12975712
54	0x3e138a8e	0.14408323
55	0xbe1ebeea	-0.15502515
56	0x3d66622a	0.05624596
57	0xbda71c44	-0.08159688
58	0x3d059e17	0.03262147
59	0xbd01c4c3	-0.031681787
60	0xbe344b59	-0.17606868
61	0x3dc52d10	0.096277356
62	0x3da54898	0.08070487
63	0xbcaf33fd	-0.021387095
64	0x3dc37542	0.095438495
65	0xbc6a1837	-0.014288
66	0xbe1dacef	-0.15398
67	0xbe32ce83	-0.1746159
68	0xbd89f576	-0.06736271
69	0xbe5e9985	-0.2173825
70	0x3dab1b57	0.08354824
71	0xbd2a3e47	-0.0415633
72	0xbe233868	-0.15939486
73	0x3dafbb96	0.08580701
74	0xbc0cb24f	-0.008587434
75	0x3d4c4820	0.04987347
76	0xbdb51a7b	-0.088429414
77	0xbd053951	-0.032525364
78	0x3e3b8a71	0.1831453
79	0xbe587970	-0.21140075

lstm.bias_hh_l0_reverse f4 [80]
0	0xbe601b29	-0.21885361
1	0xbc95cd09	-0.018286245
2	0xbdfa4d02	-0.12221719
3	0xbe08b0ab	-0.13348643
4	0xbde593b7	-0.11209815
5	0x3e595b8d	0.2122633
6	0x3d3cd9ff	0.046106335
7	0x3e21514c	0.15753669
8	0x3d861568	0.06547052
9	0xbe2ce87b	-0.1688556
10	0x3cdc883e	0.026920434
11	0x3e291a90	0.16514039
12	0x3e3f409a	0.18676987
13	0x3e382046	0.17981061
14	0xbe7b6358	-0.24549615
15	0xbc86b7c7	-0.016445054
16	0x3e2e9485	0.17048843
17	0x3d8a0e97	0.06741064
18	0x3e392040	0.18078709
19	0x3e2bab36	0.1676453
20	0xbe3b9aa4	-0.1832071
21	0x3d82c43f	0.06385087
22	0x3e6e6ecf	0.23284458
23	0xbdd53eaf	-0.104123466
24	0xbe34c72b	-0.17654102
25	0xbd98ba14	-0.074573666
26	0xbd9f8192	-0.077883855
27	0xbd8a59ad	-0.067553855
28	0x3e06cfa5	0.13165148
29	0x3d97b0dc	0.0740678
30	0x3d352208	0.044221908
31	0x3e39a6a2	0.18129972
32	0xbddfea8b	-0.109334074
33	0x3db7b83e	0.08970688
34	0xbe65697a	-0.22403517
35	0xbe4131c9	-0.18866648
36	0x3e47cca3	0.19511656
37	0x3e180c7c	0.14848512
38	0xbd97e562	-0.07416798
39	0xbe101394	-0.14069968
40	0xbdc6738f	-0.0969001
41	0x3d92b9be	0.07164334
42	0xbec9fb16	-0.39449376
43	0xbdd68ab3	-0.104756735
44	0x3e0fb7e4	0.14034992
45	0x3d7926f6	0.06082817
46	0x3d9ad9a9	0.07561047
47	0x3bbd84db	0.00578366
48	0xbdeb7c10	-0.114982724
49	0xbd091840	-0.033470392
50	0xbde53b2f	-0.11192929
51	0x3d19a408	0.037509948
52	0xbe154746	-0.1457797
53	0xbe3a3c8f	-0.18187164
54	0x3dacc9ad	0.08436904
55	0xbdfe60cf	-0.124208085
56	0xbdb44b98	-0.08803481
57	0xbd25f299	-0.040514562
58	0xbbecccb8	-0.007226553
59	0x3e6af267	0.22944032
60	0x3e447471	0.19185044
61	0x3e107de7	0.14110528
62	0xbda9472d	-0.08265529
63	0xbdffbaba	-0.12486787
64	0xbe1d17dc	-0.15341133
65	0xbdd54c0f	-0.10414898
66	0xbd9a2a52	-0.07527603
67	0x3e4e0d8b	0.20122354
68	0x3d079cd6	0.033108555
69	0x3dafb114	0.08578697
70	0xbc91badd	-0.017789299
71	0xbe64423a	-0.22290888
72	0xbd030fd0	-0.0319975
73	0xbd03aed5	-0.032149155
74	0x3e0a050e	0.1347849
75	0xbe509d1f	-0.20372437
76	0x3d3d2141	0.04617429
77	0x3d5887fd	0.052864064
78	0xbe6b5fd7	-0.22985779
79	0x3e428e3a	0.18999568

layer_norm.weight f4 [40]
0	0x3f81deaa	1.0146077
1	0x3f8cded7	1.1005505
2	0x3f87811e	1.0586278
3	0x3f828597	1.0197018
4	0x3f8298c8	1.0202875
5	0x3f9d2b9f	1.2278937
6	0x3f8da14b	1.1064848
7	0x3f841671	1.0319349
8	0x3f807823	1.0036663
9	0x3f7be151	0.9839068
10	0x3f830eb1	1.0238858
11	0x3f806860	1.0031853
12	0x3f7bab32	0.983081
13	0x4021aa30	2.5260124
14	0x3f8185c2	1.0118945
15	0x3f80c430	1.0059872
16	0x3fc7c870	1.5608044
17	0x3f9245db	1.1427568
18	0x3f92147d	1.1412503
19	0x3f8b6273	1.0889419
20	0x3f809af7	1.0047292
21	0x3f80eb98	1.0071898
22	0x3faebbfb	1.3651117
23	0x3f8775dd	1.0582844
24	0x3f8c0776	1.0939777
25	0x3f802a1e	1.0012853
26	0x3f96c634	1.1779237
27	0x3f7df664	0.9920409
28	0x3f7cb17d	0.98708326
29	0x3f93383c	1.1501536
30	0x3f7d950e	0.99055564
31	0x3f82a6f8	1.0207205
32	0x3f8f2ea7	1.1186112
33	0x3f7f985d	0.9984186
34	0x3f892f9c	1.0717654
35	0x3f879e93	1.0595268
36	0x3f813d47	1.0096825
37	0x3f7f871a	0.99815524
38	0x3f7fc40e	0.9990853
39	0x3f9034c5	1.1266104

layer_norm.bias f4 [40]
0	0xbd7d6f37	-0.06187364
1	0x3df842b0	0.12122095
2	0xbdb0de1f	-0.08636116
3	0xbd515174	-0.05110307
4	0xbdc519f7	-0.09624093
5	0xbe4292de	-0.19001338
6	0xbe0c7850	-0.1371777
7	0xbdb25bb1	-0.08708895
8	0xbd197f91	-0.037475172
9	0xbc174b6d	-0.0092342915
10	0x3dcbe33e	0.099554524
11	0xbcd91eca	-0.02650394
12	0x3c0f0393	0.0087288795
13	0x3f18c267	0.59671634
14	0xbd3c3dda	-0.045957424
15	0xbd498e29	-0.04920784
16	0xbea335a0	-0.3187685
17	0xbe6b30fd	-0.22967906
18	0x3e32c559	0.17458095
19	0x3e0fafac	0.14031857
20	0x3c866c92	0.016409192
21	0x3d8dd711	0.06925786
22	0xbe847304	-0.25869
23	0x3db0f89e	0.0864117
24	0x3dd28cea	0.102807835
25	0x3bde89e9	0.0067913425
26	0x3e29f006	0.16595468
27	0xbc31f8ea	-0.010862568
28	0xbbc3203b	-0.00595477
29	0xbe3e44ce	-0.18580934
30	0xbcb1f683	-0.021723991
31	0x3d6eb5fd	0.058279026
32	0xbe050ea2	-0.12993863
33	0x3b850abe	0.0040601185
34	0x3dece04e	0.1156622
35	0xbdd63ef6	-0.104612276
36	0x3d945b91	0.072440274
37	0xbbef1a11	-0.0072968085
38	0x3d104667	0.03522339
39	0x3e1d7a60	0.15378714

linear_layers.0.weight f4 [1, 40]
0	0xbe7e85fd	-0.248558
1	0x3ef841e4	0.4848777
2	0xbebc93c5	-0.3683149
3	0xbe684f0c	-0.22686404
4	0xbe9cf320	-0.3065424
5	0xbf41ca22	-0.75699055
6	0xbf04a11a	-0.5180832
7	0xbe94ff41	-0.29100993
8	0xbde38d5f	-0.11110949
9	0xbd8281e5	-0.06372432
10	0x3e8c7d6c	0.2743944
11	0xbe0f8228	-0.14014494
12	0xbcf6999c	-0.030102544
13	0x401a5a94	2.4117785
14	0xbe2b0adc	-0.16703361
15	0xbe13802c	-0.14404362
16	0xbfa126c5	-1.2589957
17	0xbf1fed8a	-0.6247183
18	0x3f175c18	0.591249
19	0x3eed2893	0.46320018
20	0x3ddd12f1	0.107946284
21	0x3e5059d8	0.20346773
22	0xbf7a804a	-0.97852004
23	0x3ebaa955	0.36457315
24	0x3ef24f0d	0.47325936
25	0x3dd9bf38	0.10632175
26	0x3f285531	0.6575499
27	0x3d1f3af7	0.038874593
28	0xbd25b504	-0.040455833
29	0xbf1cd1a5	-0.6125739
30	0xbcc2aeb1	-0.02376494
31	0x3e65d065	0.22442777
32	0xbf085bc7	-0.5326504
33	0x3d9881da	0.07446642
34	0x3ee0f4c5	0.43936744
35	0xbec691c1	-0.38783076
36	0x3e6f2d1c	0.23357052
37	0xbcdc081a	-0.026859332
38	0x3e3129ed	0.1730115
39	0x3f0f5d30	0.5600157

momentum_buffer f4 [80, 20]
0	0x3a4de18a	0.00078537373
1	0x3a33bf7c	0.00068568415
2	0x3b1ef0ad	0.002425234
3	0xba1c154d	-0.0005954102
4	0xba64d960	-0.0008729901
5	0x39c117ec	0.00036829652
6	0x396b4b1c	0.00022439327
7	0xbaa8949c	-0.0012861672
8	0xbb1f57ab	-0.0024313729
9	0x395daad8	0.00021139847
10	0xba2eb0ca	-0.0006663917
11	0xba293e45	-0.0006456117
12	0x3a9f8cbf	0.0012172683
13	0xbabebfd0	-0.0014553014
14	0xbacf3642	-0.0015809017
15	0xb94e8e90	-0.000196988
16	0x3a931cc2	0.001122378
17	0x3a3b55f2	0.0007146291
18	0x3a097ff9	0.00052452047
19	0xba529669	-0.0008033277
20	0x394b0277	0.00019360507
21	0x3a72c5cc	0.00092610414
22	0xba22c477	-0.0006209085
23	0x3a23435a	0.00062279927
24	0xb99c2440	-0.00029781647
25	0x3a9421d3	0.0011301584
26	0xba163a38	-0.0005730721
27	0x39e4f31a	0.00043668674
28	0x39c6691d	0.00037843818
29	0xba808b00	-0.000980705
30	0xb8af4728	-8.357904e-05
31	0xba626d72	-0.00086375244
32	0xb9025d15	-0.00012432442
33	0xba677634	-0.00088295643
34	0xba551f58	-0.0008129976
35	0x3a05a139	0.00050975714
36	0xb8e7338c	-0.0001102454
37	0x3a0f6a8c	0.0005470894
38	0x3a8b8400	0.0010644197
39	0x3a330425	0.00068289257
40	0xba9fd4c6	-0.0012194149
41	0x380951e0	3.2739597e-05
42	0xbacb7fa9	-0.0015525717
43	0xbb5a083b	-0.0033269066
44	0x3b3fc9c3	0.0029264546
45	0xb7de20a0	-2.6479654e-05
46	0x38ae3980	8.307677e-05
47	0xba30815b	-0.00067331427
48	0xbb6ace83	-0.0035828657
49	0x3a7ed8fa	0.0009721663
50	0xbab54bba	-0.0013831772
51	0x3a0f857e	0.0005474909
52	0xbb15429b	-0.0022775296
53	0x3b0f8a5f	0.0021902544
54	0xba4cfcfc	-0.000781968
55	0xbb38283e	-0.0028100158
56	0x3a6b6765	0.00089799456
57	0xb9db865e	-0.00041871046
58	0xb97a229a	-0.00023854748
59	0xb86494e8	-5.4498116e-05
60	0x3a2933de	0.0006454567
61	0xb9f0f2a7	-0.00045957157
62	0xbac16cb8	-0.0014757132
63	0x3a9c9450	0.0011946056
64	0x3a03ff8e	0.0005035334
65	0xb8b26063	-8.505655e-05
66	0xb9ef7770	-0.0004567462
67	0x3a7e3c2c	0.00096982974
68	0x3ab01779	0.001343473
69	0x38a0c3fc	7.6658995e-05
70	0x399c2711	0.00029783745
71	0xbaaae746	-0.0013038896
72	0x3a0e67c9	0.00054323353
73	0x3a3fbf3f	0.00073145697
74	0x3996e69c	0.00028782047
75	0x3a3fa7c6	0.0007311072
76	0x39d8a92a	0.00041324768
77	0x39ee5d48	0.00045464397
78	0x3a0e8402	0.0005436541
79	0xb887dc0b	-6.478288e-05
80	0x38ca4427	9.644805e-05
81	0xb82707b4	-3.9823077e-05
82	0xba9662ca	-0.0011473533
83	0xb6890600	-4.0836167e-06
84	0x3a003c3f	0.000489179
85	0xb8a00acf	-7.631408e-05
86	0xb7dcff13	-2.6344822e-05
87	0x3a0e71a6	0.0005433805
88	0x3975b2f6	0.00023431689
89	0x393b31e1	0.00017852291
90	0x37f68360	2.9386661e-05
91	0x39f1f331	0.00046148294
92	0x38034227	3.1294443e-05
93	0x39091f6a	0.00013077041
94	0xba00e5e0	-0.00049170665
95	0xba18528f	-0.0005810642
96	0x3893cbbb	7.047454e-05
97	0x37df9415	2.6652628e-05
98	0x3994287f	0.00028258932
99	0x384049d8	4.584514e-05
100	0x3a3e0a96	0.0007249502
101	0x3a84593a	0.0010097392
102	0xbaf2828a	-0.0018502038
103	0x3a58a1b1	0.000826384
104	0x3b2929ac	0.0025812192
105	0x3afbc360	0.0019208007
106	0xba7d4f64	-0.0009663014
107	0x3b2b46ec	0.0026134802
108	0xba12ce89	-0.0005600234
109	0xbaba3b62	-0.0014208371
110	0xba211732	-0.0006145119
111	0xbb8388c6	-0.0040141074
112	0xbaf0821d	-0.0018349324
113	0xbad7e644	-0.0016471823
114	0xb844e1d0	-4.6940346e-05
115	0xbab97324	-0.0014148694
116	0x38fe0a78	0.00012113614
117	0xb7cdfa80	-2.4554553e-05
118	0x3a598e87	0.00082991313
119	0x3ab03b6e	0.0013445446
120	0xba33e3bd	-0.0006862244
121	0xba346ff6	-0.00068831386
122	0xba90e4a7	-0.0011054472
123	0xbb11fda2	-0.002227642
124	0x3b424603	0.002964378
125	0xba4034fd	-0.00073321146
126	0x3a26c81a	0.0006362215
127	0xbaf6043f	-0.0018769576
128	0xbba4b4ca	-0.0050264345
129	0xb918a870	-0.00014558597
130	0xba8f4fdb	-0.0010933833
131	0x3b9dbafd	0.0048135505
132	0xbb34e0d7	-0.0027599835
133	0x3bacc56f	0.0052725594
134	0xba86e95f	-0.0010292939
135	0xbb1ff322	-0.0024406393
136	0x3b554240	0.0032540709
137	0xbb033823	-0.0020022474
138	0xbadcfa3c	-0.0016859244
139	0xb9a7894b	-0.00031955013
140	0xb9da6b1a	-0.00041659997
141	0x38985814	7.2643306e-05
142	0xb862163c	-5.3903306e-05
143	0xba773b29	-0.0009431118
144	0x36eb9860	7.0212845e-06
145	0x3a9ff3f0	0.0012203436
146	0xb761ca20	-1.3458106e-05
147	0xb9971d84	-0.00028822955
148	0xbab9a49a	-0.0014163435
149	0xba3fde30	-0.00073191803
150	0x38dc6c4b	0.000105105886
151	0x3a7a0c7a	0.00095386023
152	0x388f35bc	6.82878e-05
153	0xb9400908	-0.00018313911
154	0xbb1eee86	-0.0024251058
155	0xbaf95518	-0.0019022552
156	0x3991b0c5	0.0002778826
157	0xba0042ac	-0.00048927474
158	0xba8a57cc	-0.001055473
159	0x38a8e92f	8.054298e-05
160	0x38f28d1f	0.00011565745
161	0x3974d763	0.00023349891
162	0x3901fd76	0.0001239682
163	0x39de2d27	0.0004237678
164	0x38ae4d06	8.311313e-05
165	0xb9b88b84	-0.00035199162
166	0xb826d348	-3.9774255e-05
167	0xb939bf12	-0.00017714154
168	0x397f5c11	0.00024352992
169	0x39704875	0.00022915176
170	0x38e63c78	0.00010978518
171	0xb92c3b83	-0.00016425368
172	0x39a75616	0.0003191686
173	0x390e1586	0.00013550193
174	0xb927a6e0	-0.00015988527
175	0x394d0fba	0.00019556182
176	0x37b96470	2.2100488e-05
177	0x3814bd30	3.5462144e-05
178	0x36be6568	5.6742465e-06
179	0x37a2a907	1.9390614e-05
180	0x3ba30ae5	0.004975664
181	0x3ac21a43	0.0014808852
182	0x3a83c8d8	0.0010054363
183	0x3c2455af	0.010030194
184	0xbb7996f6	-0.0038084364
185	0x3b5457f1	0.003240105
186	0xbaec9961	-0.0018051082
187	0xbb2a47e2	-0.0025982787
188	0xbc11d261	-0.008900256
189	0x3b05c3d2	0.0020410907
190	0xba6cb2e6	-0.00090293435
191	0x3b33fedb	0.0027465138
192	0x3b621440	0.0034496933
193	0x3b82d1bb	0.003992287
194	0xbb307bfd	-0.0026929372
195	0xba763e90	-0.0009393478
196	0x37cf2900	2.4695415e-05
197	0x3bd84374	0.006599838
198	0xb910d872	-0.00013813542
199	0xbb1fa3f8	-0.0024359208
200	0x3af3d3d2	0.0018602556
201	0x388b96c2	6.656117e-05
202	0x3b8c40ed	0.0042802007
203	0xb9460f20	-0.00018888386
204	0xba7ae748	-0.0009571207
205	0x3afd1811	0.001930954
206	0x3a91dd78	0.0011128625
207	0xba846c31	-0.0010103044
208	0xbc1fdf13	-0.009757775
209	0x3ad118d2	0.0015952832
210	0xbae249b0	-0.0017264392
211	0x3c0dd6c7	0.008657164
212	0x3b455c62	0.003011488
213	0x3ab06ea6	0.001346071
214	0xbb6e7012	-0.0036382717
215	0x3b440d3e	0.002991512
216	0x3b0544dc	0.0020335233
217	0x3b49c015	0.0030784656
218	0x3a54b148	0.0008113575
219	0xbae813ae	-0.001770606
220	0xba94d28d	-0.0011354253
221	0xbb3061f4	-0.0026913853
222	0x3ace5d2a	0.0015744318
223	0xbbc417eb	-0.0059842966
224	0x3b40a6ec	0.0029396368
225	0xbb2d4fb0	-0.0026445203
226	0xba05c75a	-0.0005103253
227	0xbb1162ae	-0.0022184062
228	0xbc1f1c54	-0.009711344
229	0x3ad42dc2	0.0016187953
230	0xba025770	-0.00049721356
231	0x3c0da9e8	0.008646466
232	0xbb6c5760	-0.0036062822
233	0x3bad400e	0.005287177
234	0xbb07d5d4	-0.0020726817
235	0xbb6fb576	-0.0036576665
236	0x3b584577	0.0033000389
237	0xbaf495fc	-0.0018660421
238	0xbaf7d26d	-0.0018907316
239	0xb9c2e834	-0.00037175568
240	0x38b85d44	8.791176e-05
241	0xba1544c8	-0.0005694148
242	0xbacfc24c	-0.0015850752
243	0xbb92f382	-0.004484595
244	0x3a9bdcb7	0.001189134
245	0xba522602	-0.0008016528
246	0xb95ea642	-0.00021233506
247	0xb98256dc	-0.00024860248
248	0xbb07db8b	-0.0020730223
249	0xb98f4b16	-0.0002733103
250	0xb90a4d18	-0.00013189425
251	0x3a50c6be	0.0007964185
252	0xba9dc30c	-0.0012036278
253	0x3a997e84	0.0011710678
254	0xba1a0888	-0.0005875905
255	0xbaca3b02	-0.0015428963
