notebooks/checkpoints/epochepoch=17-lossepoch_val_loss=4.3649.ckpt (torch, 65288 bytes, 22 tensors)

lstm.weight_ih_l0 f4 [80, 20]
000000 be 7e 40 3e 8a 01 2d be bd 2b 5f bd 59 69 52 3c
       0.18798348 -0.16895118 -0.05448507 0.0128425
000010 ea fb 1d be 2c c1 c0 bd 9f 97 28 3e 08 2d 50 be
       -0.15428129 -0.094118446 0.16464089 -0.20329678
000020 9e fe f5 3d cf 3d 1c be 7a 3d f8 3d 71 9e 94 3d
       0.12011455 -0.15257953 0.12121101 0.07256783
000030 b7 51 d3 bd 61 48 66 bc 40 bc 20 be f3 e3 39 be
       -0.1031832 -0.014055342 -0.15696812 -0.18153362
000040 e9 3f 5f be fa f8 a5 3d 25 ed 27 3c 18 73 2e 3e
       -0.21801724 0.08104129 0.010249411 0.17036092
000050 46 3f 85 3a a4 ca bf bd 12 4f 89 3d 07 00 95 bd
       0.0010165952 -0.093648225 0.067045346 -0.07275396
000060 a7 cf 1b 3e 48 da a8 bd ab 62 35 3e 81 f5 2e be
       0.15215932 -0.08244759 0.1771342 -0.1708584
000070 1d 8b 3e 3e bc 46 24 3d fc 0b 40 3e d6 9d 46 be
       0.18607755 0.04010652 0.18754572 -0.19396147
000080 a6 59 ed bc 3e 0c 0e be aa 95 63 bd 24 d4 4c be
       -0.028973412 -0.13871858 -0.055562653 -0.200028
000090 7c e6 e8 bd 72 cf 03 be 3b 10 7a bd a2 8c c6 bd
       -0.113720864 -0.12872103 -0.061050635 -0.09694792
0000a0 c4 be b5 bd 8f b9 3c be 27 5e 23 be 15 8a 5f bd
       -0.08874276 -0.1843016 -0.15953885 -0.054575045
0000b0 95 5e 8f 3d 60 64 9d 3d 81 cc 8d bd 58 cd 9b 3b
       0.07000462 0.07685161 -0.06923772 0.0047547035
0000c0 80 9c 22 3d b8 e0 97 3b 9b 47 bf 3d 1d 12 e6 3b
       0.03970003 0.004634943 0.093398295 0.0070212022
0000d0 f1 da d0 bc a4 11 1a bd c9 2e 1a be 56 8f e9 bb
       -0.025495024 -0.03761448 -0.1505691 -0.0071276827
0000e0 55 13 46 3d fc a3 ba 3d 24 89 2c 3e 81 72 f7 3d
       0.04835828 0.09113309 0.1684919 0.12082387
0000f0 2c 71 69 bd 4c 4e 39 bd 64 51 35 3e 22 c7 67 3e
       -0.056992695 -0.045240685 0.1770683 0.22634557
000100 8a 13 49 3d ff 0b bd bd 7c 8f 26 be d7 b2 b3 bd
       0.0490909 -0.09230804 -0.16265672 -0.08774345
000110 ba 4b de bd e9 d7 94 bd e3 d2 39 bc f8 99 a5 bd
       -0.108542874 -0.07267744 -0.011341783 -0.08086008
000120 07 6f 34 3e 8d 50 27 3e 4e 53 37 be 6d 17 ef bd
       0.17620479 0.16339321 -0.17902872 -0.1167439
000130 6a c5 5f be 21 63 ba 3d e1 cb 41 3e 36 ae 34 3e
       -0.21852651 0.091009386 0.1892543 0.17644581
000140 87 d5 45 be 50 01 bd 3c 11 69 c7 bd 19 48 7c be
       -0.19319735 0.023071915 -0.09736837 -0.24636878
000150 29 3d d6 bc 94 1a d6 bd f9 31 32 be 31 24 f7 3d
       -0.02615221 -0.10454288 -0.17401876 0.1206745
000160 88 08 c3 3c 66 08 15 3e 9b 1c 85 bb 23 13 74 be
       0.023807779 0.14553985 -0.004062248 -0.23835425
000170 3c cb 28 be 03 de c8 bd d5 01 0e 3e be de 2e be
       -0.16483778 -0.098079704 0.13867886 -0.17077157
000180 75 61 7c be 50 05 26 be 39 55 66 3e e3 0f 0e 3a
       -0.24646552 -0.16212964 0.22493447 0.00054192374
000190 4a 8f 4b bd 08 6c 0d be 01 21 2d 3d 79 8b 82 bd
       -0.049697198 -0.13810742 0.042267803 -0.063742585
0001a0 d0 cc 06 be 11 b9 24 be ea 3d 38 3e 1b ee e2 3d
       -0.13164067 -0.16086222 0.17992368 0.11080571
0001b0 91 b3 20 3c 5c 73 28 3e 8f 83 a9 bc fb 2d 5f 3e
       0.009808437 0.16450256 -0.020692615 0.21794884
0001c0 f9 c0 6b 3e c5 6d 34 be 4d 0b 5a be 47 90 a0 bc
       0.23022832 -0.17619999 -0.21293373 -0.019600047
0001d0 99 24 28 3e 26 f1 84 bd 53 18 01 be 06 aa c2 3c
       0.16420211 -0.06491308 -0.12606935 0.023762714
0001e0 5f d5 09 be ca 53 5a bc c2 43 ff bd 7e 9d 48 3e
       -0.13460301 -0.013325641 -0.12464096 0.19591329
0001f0 fe 73 3d be ee f3 3c 3e 2b 0e ef 3d 89 d1 1d be
       -0.18501279 0.18452427 0.11672624 -0.15411963
000200 e0 0d 88 3e 44 f4 0d be 1c 7b 56 bd b9 1c ac bd
       0.26573086 -0.13862711 -0.0523635 -0.08403916
000210 c8 f2 18 3e d3 7d c3 bb 33 3e ff bb dc af 6d 3e
       0.14936364 -0.005965927 -0.007789397 0.23211616
000220 76 1a 30 3e 62 9b 51 be 7d 68 a6 3d 68 4f c0 bd
       0.17197594 -0.2046943 0.08125398 -0.093901455
000230 44 72 1c be 6d 84 de bc f2 fd 36 3d 35 24 81 3d
       -0.15277964 -0.027162755 0.044675775 0.06305734
000240 e7 0d e0 bd 9e 80 00 3e 6b 74 80 bb ad 95 2a bd
       -0.10940152 0.12549064 -0.003920128 -0.04164665
000250 05 f3 7e 3e 6b 1e 32 be e8 e7 d0 3d 84 a6 e0 3c
       0.24897392 -0.17394416 0.102004826 0.02742315
000260 61 bc 11 be ba 5b 05 be 1c 03 0e be 99 98 92 bd
       -0.14232017 -0.13023272 -0.13868374 -0.07158012
000270 8f 13 4e 3e 28 86 f8 bd 6d 72 80 be 2f 9a bf bd
       0.20124649 -0.12134963 -0.250873 -0.0935558
000280 97 e7 5d be e3 bd 3c 3e 80 61 ff bd 1f 2b 9f bd
       -0.21670376 0.18431811 -0.124697685 -0.077718966
000290 cf 85 84 bd 08 dd 73 3d 62 5e f6 bc e3 60 b0 bd
       -0.064708345 0.059536964 -0.030074302 -0.0861223
0002a0 62 ac ba bd 76 73 05 3e a4 6a 3e be cd 31 60 bb
       -0.09114911 0.13032326 -0.18595368 -0.003420937
0002b0 26 ec 38 3e 25 89 64 be 5a 42 c6 3c 2b 15 1a 3d
       0.18058833 -0.22317941 0.02420156 0.037617844
0002c0 0d ce 27 3e f7 2b 5f be b9 87 18 bd 4f 2b 54 3e
       0.16387196 -0.21794115 -0.03723881 0.20719646
0002d0 91 6f d6 bd fb 28 0f be 42 17 21 3d bd 4b aa 3c
       -0.10470498 -0.13980477 0.03932882 0.020788068
0002e0 90 fc 87 3e f8 74 22 be 59 7b 16 3d cd 94 47 bd
       0.26559877 -0.15864933 0.036738727 -0.04872589
0002f0 84 8e a3 bc 27 96 8c bd 64 39 0d bd d2 ad 55 be
       -0.019965418 -0.06864577 -0.03447856 -0.20867088
000300 c0 fa 53 be 5e e3 24 be e7 e6 d1 bd ae 81 31 be
       -0.20701122 -0.16102359 -0.10249119 -0.17334625
000310 fd 24 5e be 97 3b 17 be e5 f2 a3 bd 3a 9e 43 3e
       -0.21693797 -0.14768825 -0.08005313 0.19103327
000320 72 9d 4d 3e aa 7a 33 3e c1 a1 1e be 8f 01 2f be
       0.20079592 0.17527261 -0.15491392 -0.17090438
000330 7b cb 36 3e e0 1d b7 3d bd 52 55 3c 20 4b f5 bd
       0.17851059 0.08941245 0.013020215 -0.119772196
000340 14 75 8a bd 40 51 89 be d5 d6 d4 3d bc 48 c5 bc
       -0.06760612 -0.268198 0.103925385 -0.024082534
000350 96 f6 2d be 7e 99 29 bc 78 2f f3 3d 7d ea 29 be
       -0.16988596 -0.010351537 0.11874288 -0.16593356
000360 5e 9a 64 bd 67 eb 93 3c b5 ab 93 3c 61 4f 18 3e
       -0.05581128 0.018056585 0.018026212 0.1487403
000370 c1 da bd 3d 50 f4 81 3d 54 8b 37 be fe f9 89 3b
       0.092702396 0.06345427 -0.17924243 0.0042107096
000380 f5 ac 4b 3e 73 82 41 be c7 12 38 3e 9c 55 8f bc
       0.19890197 -0.18897419 0.17975913 -0.017496876
000390 8a b2 4f be 6b cb d5 bd 3b 4f 88 3d 83 fc 8e 3c
       -0.20282951 -0.104391895 0.06655737 0.017454391
0003a0 0b 8e 44 be 7c f4 37 3e d1 87 df bd c2 fe 2b 3e
       -0.1919481 0.17964357 -0.10914577 0.16796401
0003b0 dd 25 79 3d 62 3f 1b 3e 79 9f 75 3c 88 b9 8a 3d
       0.060827125 0.15160897 0.0149916345 0.067736685
0003c0 aa 6f 0e 3e a1 76 4c be a6 c8 61 3d ea 82 fd bd
       0.13909784 -0.19967128 0.055122994 -0.123784855
0003d0 ce f7 1a be 48 8b e8 3c 41 19 46 be 79 0f 66 be
       -0.15133592 0.028386727 -0.19345571 -0.2246684
0003e0 9e 15 e8 3d af 0e 23 be 20 7d 32 3e d6 76 32 bd
       0.11332248 -0.1592357 0.17430544 -0.043570362
0003f0 3c a5 18 be 08 c2 18 3e 7e d3 18 bd b2 3d f5 bd
       -0.14906782 0.14917767 -0.03731107 -0.11974658

lstm.weight_hh_l0 f4 [80, 20]
000000 3c b8 7f bd eb 19 af 3d cb 55 0a be 2c 3c 06 3e
       -0.06243156 0.08549865 -0.1350929 0.13108891
000010 f1 14 e1 3c 7a 7d 29 3e 0a 08 0f 3e ee 91 b0 3c
       0.027475806 0.16551772 0.1396791 0.02155396
000020 9d 55 0a be e6 4e 71 3d 26 b5 55 be 8f c2 35 3e
       -0.13509221 0.058913134 -0.20869884 0.1775
000030 eb b9 2a bd 30 b2 2a be 17 d1 d5 bd 01 3b c6 39
       -0.04168121 -0.16669536 -0.10440271 0.00037809464
000040 32 e9 5d bc 92 ca 37 be e8 6d 74 3c 5f bf fe bd
       -0.013544368 -0.17948368 0.014918782 -0.12438845
000050 1d 89 51 3e 50 c5 03 3e 1a e5 1b be ad 1c 1d 3d
       0.20462461 0.12868237 -0.15224114 0.038357425
000060 1a 16 26 3e 99 a3 61 bc 7e f9 59 3e a5 fb a5 bd
       0.16219369 -0.013771915 0.2128658 -0.08104638
000070 12 3e ee ba 8f 82 38 be 38 d4 4f 3e de 0c c5 bd
       -0.0018176457 -0.18018554 0.20295799 -0.09621595
000080 03 b7 5b 3e f8 f0 a9 bd 88 59 1f bd c5 f9 c9 3d
       0.21456532 -0.08297914 -0.038903743 0.09862093
000090 ac c2 f9 bd af b9 e3 bc 01 47 f2 bc eb b7 39 3d
       -0.12195334 -0.027798502 -0.029574873 0.045341413
0000a0 e9 4b 26 3d 8a 21 c7 bd 0d 8d ed 3c e0 c0 a1 bd
       0.040599737 -0.09723194 0.028997922 -0.07898116
0000b0 32 ec de bc 9b 53 64 be d7 ff 3b 3d e7 1f 2d bd
       -0.027212236 -0.22297518 0.045898285 -0.042266753
0000c0 e4 d0 44 be bd b2 98 3d d2 59 2f bd 31 32 ff bc
       -0.1922031 0.074559666 -0.04281027 -0.031151863
0000d0 3d be 67 be 60 1d cd bd d3 02 e9 bd 17 65 83 be
       -0.22631164 -0.100153685 -0.11377492 -0.25663063
0000e0 eb f9 3a be 0f 89 bf 3d 07 69 53 be 51 90 21 3e
       -0.18259399 0.09352314 -0.20645534 0.15777709
0000f0 12 db bb ba 8a 7f a2 3d e8 1e f7 bb 71 d0 04 bd
       -0.0014332256 0.079344824 -0.007541526 -0.032425348
000100 f6 d4 80 bd 46 10 47 be 5e c2 db 3d c0 c6 52 3d
       -0.06290619 -0.19439802 0.10730432 0.051459074
000110 8a 47 28 be 4e 86 23 be 23 1a 1e 3e e7 90 74 bd
       -0.1643354 -0.15969202 0.15439658 -0.059708502
000120 1e f7 ab bd 0d b4 10 be f6 97 0b 3d 72 8c ec 3d
       -0.08396743 -0.14131184 0.034080468 0.11550225
000130 9b a0 3b bd e0 ab 21 be d1 97 67 3e c1 24 f3 3d
       -0.045807462 -0.15788221 0.22616507 0.118722446
000140 7d cd 6a 3d 9e ea b9 bb 81 07 e5 3c 9f c2 e7 3d
       0.057324875 -0.0056737205 0.02795768 0.11316418
000150 ff 48 70 be a3 32 73 3c 6d 07 5c be 7f 4e 32 be
       -0.23465346 0.014843616 -0.21487208 -0.17412756
000160 92 a5 30 3e a6 f1 33 3b 98 87 8d bd 3c c1 16 3e
       0.1725066 0.0027457266 -0.06910628 0.1472215
000170 ce 13 57 bd 14 2d 75 3e 26 2e 51 be 7e 2f 5a be
       -0.05250912 0.23942977 -0.2042776 -0.2130718
000180 55 ef 9d 3e 00 9d 10 3d 7f 3f f4 bd 89 66 4e 3e
       0.30846658 0.035305977 -0.119261734 0.20156302
000190 7e 9d da bd 9f fb 42 be d3 3d 26 be 05 b6 2f 3e
       -0.106745705 -0.19041298 -0.16234522 0.17159279
0001a0 ef 19 02 be a9 0a d1 3d f6 35 61 3e 0e 57 1b 3e
       -0.12705205 0.102071114 0.2199324 0.15169927
0001b0 3a 6e 44 3e 5a a0 60 bd 1d 46 28 be 6c 75 09 be
       0.19182673 -0.054840423 -0.16432996 -0.13423699
0001c0 8f b1 d0 3c 60 0d 62 3c 01 00 bc 3d 95 0d 2d 3e
       0.025475292 0.013797134 0.09179688 0.16899712
0001d0 5d b8 2e 3e b2 bb 12 be 1d 43 50 be 74 76 f5 bd
       0.17062517 -0.14329413 -0.20338102 -0.11985484
0001e0 d8 50 00 be 82 3c ce 3d 95 89 5d be b0 a5 d1 3d
       -0.1253084 0.10070135 -0.21634515 0.102366805
0001f0 f3 dd e4 3d 20 4b 6d be 07 46 51 be e7 de 3b 3e
       0.11175146 -0.23173189 -0.2043687 0.18346749
000200 65 27 e2 3d 06 57 b8 bd 8f 97 4f be 8d 48 44 3e
       0.1104267 -0.090009734 -0.20272659 0.19168301
000210 81 79 ca bd d5 12 2c 3d 2d 45 58 3c 67 ba e9 3d
       -0.09886456 0.042010147 0.013200087 0.114125066
000220 87 8d f8 3d c0 3b 00 bd c9 05 96 bd df b1 21 3e
       0.12136369 -0.031306982 -0.07325322 0.15790509
000230 15 43 f6 3d 69 48 f2 3d a4 9b 0c 3e 50 d7 4c be
       0.12024514 0.118302174 0.13731247 -0.2000401
000240 89 75 13 3e 91 3c 09 bd fc c1 d9 3d 02 f9 70 be
       0.14400305 -0.033505026 0.10632703 -0.23532489
000250 e6 ce a1 3c 51 38 f6 3d 0b 51 57 be b8 47 38 be
       0.019751977 0.1202246 -0.21027009 -0.17996109
000260 ee 4a e4 bd ca a9 14 be 96 12 2e 3e b9 60 3e be
       -0.11147104 -0.14517894 0.16999277 -0.18591584
000270 a6 d4 5d be 4d 6b 0b be e4 fc 3a 3c 1a 14 5d 3e
       -0.2166315 -0.13615151 0.011412833 0.215897
000280 21 c0 69 3e cf 64 0d 3e a8 de 39 be d7 f7 4c 3e
       0.22827198 0.13807987 -0.18151343 0.20016418
000290 7c dd cb 3c 51 20 15 be af ea 99 3c 68 07 06 3e
       0.024885885 -0.14563109 0.018788664 0.13088763
0002a0 54 e6 03 3e 5e e8 9d 3a 92 b8 1e 3e 33 f6 44 be
       0.12880832 0.00120474 0.15500095 -0.19234543
0002b0 91 1d 8c bd a4 8a bc 3d a1 37 02 be 1c ab 9f 3d
       -0.06841577 0.09206131 -0.12716533 0.077963084
0002c0 aa 93 78 bd 78 12 43 bd fc 66 b5 3a c7 bf 01 be
       -0.0606877 -0.047625035 0.0013839896 -0.12670814
0002d0 17 8a a3 3d da 91 03 be 67 bc b9 3b d6 a9 2b 3d
       0.07985323 -0.12848607 0.0056682113 0.041910015
0002e0 02 1d 8c 3e 59 d9 ac bd 0c bd 3f 3d 52 5c 3b 3e
       0.2736588 -0.08439893 0.04681115 0.18296936
0002f0 fb a5 66 be 81 46 0b 3e 45 cd 65 3e 32 90 ff 3d
       -0.22524254 0.13601114 0.22441585 0.12478675
000300 22 4e 69 be e2 b6 38 3d 75 13 d7 bd 56 70 f2 3c
       -0.22783712 0.045096286 -0.10501758 0.029594582
000310 40 db a6 bd 18 9d 5b 3d 9d 70 3a 3e e5 f4 0a be
       -0.08147287 0.053616613 0.18207021 -0.13569982
000320 8d ff 18 be 28 11 f4 bd ef 5f 21 be 58 ee 89 3d
       -0.14941235 -0.11917335 -0.15759252 0.067349136
000330 8a f5 db 3d 87 e4 4b be df f1 21 be 3c 93 c6 bd
       0.10740192 -0.19911395 -0.15814923 -0.096960515
000340 1d 24 5d 3d db a8 6f be 09 69 47 3e e8 29 1a 3d
       0.05398952 -0.23404257 0.19473661 0.03763762
000350 ef 31 b9 3d 55 5a 2b 3d 9a 72 c4 bd 30 0b ba bb
       0.09042727 0.041834194 -0.09592171 -0.005677603
000360 88 94 0c be d3 eb 29 be 03 9f 42 3e 3c 51 b0 bb
       -0.13728535 -0.16593866 0.1900597 -0.0053807776
000370 48 21 47 bd 98 fd 66 bd 64 5a 54 be 91 97 b5 bd
       -0.048615724 -0.05639419 -0.20737606 -0.088667996
000380 5a d0 d7 bd 3e dc 9a 3d 28 70 a9 3d 04 46 2a 3e
       -0.10537787 0.07561539 0.08273345 0.16628271
000390 17 a4 ce bd 15 fe 7b 3e a1 70 48 be 4d 16 2d be
       -0.100898914 0.24608643 -0.19574215 -0.16903038
0003a0 64 d5 39 bd fd aa a7 3d db 78 95 bd c2 f9 6c be
       -0.04536952 0.0818691 -0.07298442 -0.2314215
0003b0 14 86 09 be e5 41 30 3e 2e 42 07 3d 37 21 ce 3d
       -0.13430053 0.17212637 0.0330221 0.10064929
0003c0 af 5e 21 be d0 ee 18 bd b7 18 ea 3d 54 63 4e 3e
       -0.15758775 -0.037337124 0.11430495 0.20155078
0003d0 39 f7 48 be b7 7a 1d 3e 45 0b 24 3e 84 8e 46 3e
       -0.19625558 0.15378843 0.16019924 0.19390303
0003e0 ed fe a9 bd e5 68 68 3e 27 51 3b 3e 0f 1a 33 bd
       -0.08300576 0.22696264 0.18292676 -0.043726023
0003f0 0d 1a 12 3b 24 f4 2f be e8 e3 cc bd 0c e7 3e 3c
       0.002229336 -0.17182976 -0.10004407 0.011651766

lstm.bias_ih_l0 f4 [80]
000000 77 ca 0c 3d c5 11 28 bd 58 87 2e bd 8a 98 f4 bd
       0.034372773 -0.04103257 -0.042609543 -0.11943157
000010 6a f9 ef 3d a2 53 d7 bd e9 79 12 be 18 63 42 be
       0.11717494 -0.105139986 -0.14304318 -0.18983114
000020 33 99 28 3c 54 7a 87 3e e0 bb 8c bc 44 e6 cd bc
       0.010290432 0.26460516 -0.01717943 -0.025134213
000030 85 58 8c bd c9 6b 34 3d ee 80 3a 3e 78 5a 16 3e
       -0.06852821 0.044048104 0.18213245 0.14682949
000040 d5 51 74 bd db cb 41 3e b3 f6 c3 3d f1 55 35 be
       -0.059648354 0.18925421 0.095685385 -0.17708565
000050 e7 41 8c 3e 24 66 5a 3e 45 94 8a 3e 5e 1d 18 be
       0.2739403 0.21328026 0.27066246 -0.14854953
000060 57 38 c0 3e 5e 09 85 3e 1a 3a ec 3d fd 76 72 3e
       0.37542984 0.2598371 0.115345195 0.23678203
000070 49 5a 24 3e 22 2d 18 3f 2e 38 7b 3e fd cd fd bd
       0.16050066 0.5944387 0.2453315 -0.12392805
000080 61 19 5c 3d b0 b2 ba bd 09 9a 2f 3e 79 7c 8f bd
       0.05373514 -0.09116113 0.17148603 -0.07006163
000090 90 9f a4 3d 17 73 8f 3e 42 a6 3c 3d ea 9d 8b 3e
       0.08038247 0.28017494 0.046056993 0.27268916
0000a0 f0 89 18 be 86 14 89 b8 52 9b 79 3e d6 a3 c6 bd
       -0.14896369 -6.536492e-05 0.24375656 -0.09699218
0000b0 67 5b 90 3d df 25 96 3d 21 55 55 be 57 7b 45 3d
       0.070486836 0.07331442 -0.20833255 0.04821333
0000c0 2c cb 58 bd 2c a5 3c 3e 87 c6 20 be e3 28 18 be
       -0.052928135 0.18422383 -0.15700732 -0.14859347
0000d0 5f 71 35 be a7 45 73 bd e9 09 0e be aa a3 d8 3c
       -0.17719029 -0.059392598 -0.13870968 0.026445229
0000e0 c3 81 6b 3e 1c db fc 3d 96 0d ef bd b4 45 59 bd
       0.22998719 0.12346479 -0.11672513 -0.05304499
0000f0 49 3b 3a 3d 3d 5a 93 3d 6f 98 c3 3c d4 36 dc 3d
       0.045466695 0.07194946 0.023876397 0.10752645
000100 ca c7 cc 3e e5 f7 29 3d 74 9a 06 3e a6 5a 41 bc
       0.39996177 0.041496176 0.13144857 -0.011801397
000110 67 92 0e 3e 0d 5b da 3e 6b 4c 84 bd 00 8e 31 be
       0.13923036 0.4264759 -0.06459888 -0.17339325
000120 ba f4 f6 bc 14 19 9a bc a4 5c 46 3e b6 2e 3f be
       -0.030145992 -0.018810786 0.19371277 -0.18670163
000130 89 ba c3 bb b2 36 82 bd 6c 40 0e be 45 9c 30 be
       -0.0059731645 -0.063580886 -0.13891762 -0.17247112

lstm.bias_hh_l0 f4 [80]
000000 de 8e 1b be 2f 3c 5f bd f6 c3 20 3e fe c1 e4 3d
       -0.15191218 -0.054500755 0.15699753 0.111698136
000010 78 74 41 be 46 b1 91 bd 32 3d 6c 3c 79 1f 29 be
       -0.18892086 -0.0711389 0.014418887 -0.16515912
000020 c9 99 e5 bd 50 58 81 3c 96 25 32 3e 01 9a 44 be
       -0.11210973 0.015789181 0.1739715 -0.19199373
000030 48 d6 0f be b4 e2 02 3e df 09 da bd a0 de 39 be
       -0.14046586 0.12781793 -0.10646414 -0.18151331
000040 e3 70 59 3e fc ff 05 3d f8 fc 97 3d 6c a6 8b 3d
       0.21234469 0.03271483 0.07421297 0.06818852
000050 e8 07 4b 3d 86 e5 71 3d af e9 ef 3d e4 f8 bc 3d
       0.049568087 0.05905678 0.117144935 0.092271596
000060 a1 c8 f7 3e 8d fa 6b bd 55 0c 5b bd 75 77 d8 ba
       0.48395255 -0.05761199 -0.053478558 -0.0016515093
000070 78 fe b5 bd da cf 23 3f e4 6f 53 3e 90 f1 ae bd
       -0.08886427 0.6398903 0.20648152 -0.08542168
000080 41 7d 42 3c 7b c8 60 bd f3 0d b9 3e 91 56 77 3e
       0.011870683 -0.054878693 0.36143455 0.24154116
000090 2e e8 8e 3e 89 74 5a 3e 5b 14 ca 3e ed b3 54 3e
       0.27911514 0.21333517 0.39468655 0.20771761
0000a0 cb 49 5d 3d c8 e3 16 be e4 b8 8c bb b2 9c 92 3e
       0.054025453 -0.14735329 -0.0042945016 0.28635174
0000b0 6c 24 7c bc 06 bf c0 bd 01 93 19 be c7 9c 4b bd
       -0.015389543 -0.09411435 -0.14997484 -0.04971006
0000c0 46 12 8c 3c f2 01 06 3d 88 70 5f be 29 9a 1e bd
       0.017098557 0.0327167 -0.21820271 -0.038721237
0000d0 10 19 62 be da 1e 08 bd fb 73 99 be be 59 16 bd
       -0.22079873 -0.033232547 -0.299713 -0.03670668
0000e0 ba af 46 bc 8f 28 39 3e ed f5 1b 3c f7 9b cf b9
       -0.012126857 0.18081878 0.0095190825 -0.0003959832
0000f0 aa 58 2d 3e 1a ae fa bd 1e 0c 01 3e 8a ad 60 be
       0.16928354 -0.122402385 0.12602279 -0.219412
000100 21 48 d5 3c 6f ef 26 3e 96 42 8e 3d 39 bc 89 3e
       0.02603537 0.16302274 0.06946294 0.26901415
000110 e0 0b 6c bc 7f 17 da 3e 4b e3 80 3e 46 4a 54 bc
       -0.014407128 0.4259605 0.2517341 -0.012957161
000120 30 ec 3c be 78 25 15 bc 60 cd 03 be 6d e4 1f 3e
       -0.18449473 -0.0091031715 -0.12871313 0.15614481
000130 5c 6f 71 3e f7 12 5e 3e aa 6f e4 3c 30 92 01 3e
       0.23577636 0.21686922 0.027885277 0.12653422

lstm.weight_ih_l0_reverse f4 [80, 20]
000000 86 49 44 3e 33 3f bd bd 79 6f c1 3b 50 34 62 be
       0.19168672 -0.0924057 0.005903181 -0.22090268
000010 39 ef 5b 3e e9 c1 23 3d 40 c7 5e be a1 75 34 3e
       0.21477975 0.03997985 -0.21755695 0.17622997
000020 5c d2 58 3e 40 84 3a 3e c1 af 3b be 08 83 47 3e
       0.21173996 0.18214512 -0.18328764 0.19483578
000030 62 d9 81 bd 80 b9 3b 3e 8e 8b 42 be 66 b9 4d 3e
       -0.063402906 0.18332481 -0.18998548 0.20090255
000040 a9 36 56 be 23 af 97 bd 36 0e 52 bd 42 75 28 be
       -0.20919289 -0.074064516 -0.051283084 -0.1645098
000050 ef 7f a1 bd 5d 70 ef bc 21 c7 2f be 3d a1 1a 3d
       -0.078857295 -0.029228384 -0.17165805 0.037751425
000060 85 5d 42 3e 8b 14 ce bd 3a 84 37 be 05 b4 50 be
       0.18980987 -0.10062512 -0.17921534 -0.20381172
000070 9b 9c a6 bc e6 a7 93 bd 0b 99 25 3e b9 58 5e be
       -0.020338347 -0.072097585 0.16171663 -0.21713533
000080 b7 21 a7 3d fe 01 36 3e 39 96 da 3d c8 45 5e 3e
       0.081607275 0.17774197 0.10673184 0.21706307
000090 c1 bc 5a be 0e 18 16 3e 3c 43 4c 3e ac 02 05 3c
       -0.21361066 0.14657614 0.19947523 0.008118313
0000a0 ec 7f ff 3d e8 a7 02 be af 80 1d 3e 8e bd 1b be
       0.12475571 -0.12759364 0.1538112 -0.15209028
0000b0 87 38 6b be 16 31 1a be 09 64 f2 bd 81 80 07 bd
       -0.22970782 -0.15057787 -0.118354864 -0.033081535
0000c0 64 f9 fe 3d 82 54 62 bc e7 96 50 3e b7 81 42 3e
       0.12449911 -0.013814094 0.20370065 0.18994795
0000d0 99 79 b4 3d 2f aa 5f be a8 86 58 be 08 94 c5 3d
       0.088122554 -0.21842264 -0.21145117 0.09647375
0000e0 08 78 18 be d0 36 52 3e 38 5f f3 bd d0 fa 9e bd
       -0.14889538 0.20528722 -0.11883396 -0.077626824
0000f0 58 6f 49 3e 44 00 2b bd 31 7a 08 3e 66 3f 13 3d
       0.1967138 -0.0417483 0.13327862 0.035949133
000100 5b 8d 44 be d7 68 42 3e 1b a1 7e 3c 7c f7 66 3d
       -0.19194548 0.18985306 0.01554134 0.056388363
000110 04 a5 b3 3d 18 a7 49 3e d0 43 9e bd 4d e6 0c be
       0.087717086 0.19692647 -0.07727778 -0.13759728
000120 ab 4d 9d 3d eb e0 6e bd 3f 6c 6b bd ab ca 1d 3e
       0.076808296 -0.058319967 -0.05747628 0.15409343
000130 a2 6e de 3d 5f fd 23 3e ed 7b 56 bd 1f 6c 3b be
       0.10860945 0.16014622 -0.05236428 -0.18302964
000140 dd b5 62 be 68 d5 2f be 18 d5 4b be ec 0d 08 3e
       -0.22139688 -0.17171252 -0.19905508 0.13286561
000150 e8 78 99 3d 57 a3 a1 3d 0c 2c bd bd 24 1b ba 3d
       0.07493764 0.07892483 -0.09236917 0.09087208
000160 b2 75 10 3e 8b b1 39 3c 34 38 66 be 46 19 4e be
       0.14107397 0.011333833 -0.22482377 -0.20126829
000170 4e ee 4e 3c 0e 07 0d be 65 c1 07 3e 7c 57 27 3e
       0.012630058 -0.13772222 0.13257368 0.16341966
000180 4f 44 ff 3d 58 70 09 3e 0e 6c 06 bd 61 39 1b be
       0.12464201 0.13421762 -0.032817893 -0.15158607
000190 2e 19 1f be a3 2c 91 3c ea e4 16 3d ef c3 55 3e
       -0.15536949 0.01772148 0.036839403 0.20875524
0001a0 86 8d 95 bd b5 ef c7 3d 8f 9c b7 3d 5f 04 0d 3e
       -0.07302384 0.09762517 0.08965408 0.13771199
0001b0 23 96 56 be 6c 2e 17 3d b3 4b a0 bd 48 f9 57 3e
       -0.2095571 0.036909506 -0.078269385 0.21091187
0001c0 68 52 ef 3c 80 14 8c 3c 15 51 54 be 00 92 d3 3d
       0.029214099 0.017099619 -0.20734055 0.10330582
0001d0 0d 4b 91 3d fe 36 42 bd 45 42 04 3e b9 43 55 bd
       0.07094393 -0.047415726 0.12915905 -0.05206654
0001e0 fd 55 a1 bd 42 9b 46 be a0 e2 2d be 07 e4 47 be
       -0.07877729 -0.19395164 -0.16980982 -0.1952058
0001f0 66 26 0b be d8 48 d8 3d 3f ea 65 bb 8f 19 9e 3c
       -0.13588867 0.10560769 -0.0035082249 0.019299297
000200 b7 d6 1d be 9d f3 df bb a6 54 8a 3d bf 26 2e 3d
       -0.15413938 -0.006834461 0.06754427 0.04251742
000210 3b f9 e4 3d 6f aa 7e 3c 6f 80 48 3e df 6f 28 3e
       0.111803494 0.015543564 0.19580244 0.16448925
000220 1a 7d c3 3c 62 66 7a bd 5b b2 02 be a3 b4 00 3e
       0.023863364 -0.061132796 -0.1276335 0.12568907
000230 92 74 3c 3e 07 f0 0f bd 43 02 fe bd 33 39 f2 3d
       0.18403843 -0.035141017 -0.12402775 0.11827316
000240 09 8a 02 3e 6f ae 5d bc 4b ba 0d be ac ff 57 be
       0.12747969 -0.013530358 -0.13840596 -0.21093625
000250 cd ce 03 be e4 9b 79 bd 9a fe 21 be 75 e9 3f be
       -0.12871857 -0.060939685 -0.15819779 -0.187414
000260 dc ed c7 3d a8 ef 2d be b1 e1 1a be bf e7 00 be
       0.09762165 -0.16985953 -0.15125157 -0.12588404
000270 14 ec be 3c 99 ae c8 bc bc 9a c7 3d 86 31 00 bd
       0.02330593 -0.024497317 0.0974631 -0.03129723
000280 c0 70 1a be 9a bc 1a 3e a9 99 29 be 9e 08 f5 3c
       -0.15082073 0.15111008 -0.16562523 0.029911336
000290 ff a2 a8 ba 80 0d b2 3d 31 f0 24 3e 8e 48 42 be
       -0.001286596 0.08693981 0.16107251 -0.1897299
0002a0 5e 5b 15 3e 00 78 c1 3d e0 9d 04 3e 41 63 5f be
       0.14585635 0.09446716 0.1295085 -0.21815206
0002b0 7d 32 90 bd e5 e2 1d 3e f9 6f 8a bd 4e d6 81 3d
       -0.0704088 0.15418585 -0.06759638 0.063397035
0002c0 34 84 f5 3d 41 89 38 be c0 0f e4 bc 86 2d 2a 3e
       0.11988106 -0.18021108 -0.027839541 0.16618928
0002d0 38 28 eb bc 37 b1 0d 3e f0 30 3e 3e 74 ec ae bd
       -0.028705701 0.13837133 0.18573356 -0.085411936
0002e0 32 6e 3f be d7 f5 cf bd 40 7a ac 3d 64 98 ee bb
       -0.1869438 -0.10154312 0.08421755 -0.00728135
0002f0 d5 e0 00 be f4 ae b7 bd 3d af 5c be 20 6d fd 3d
       -0.12585767 -0.089689165 -0.21551223 0.123743296
000300 22 57 22 3e 9e 84 3d be ee dd 9c 3d e0 72 5c bb
       0.15853551 -0.1850762 0.07659517 -0.0033637807
000310 8b 39 26 be 10 76 bf 3c bf 65 46 be f6 e7 05 3e
       -0.16232888 0.023371726 -0.1937475 0.13076767
000320 f9 6c 2f be b0 85 11 bd 1e 37 29 be 72 46 3d 3e
       -0.17131414 -0.035527885 -0.16524932 0.18483904
000330 3e df 02 be a7 37 05 3e 64 b0 b6 bd 0e f6 58 3e
       -0.12780473 0.13009511 -0.089203626 0.21187612
000340 9a e1 1e 3e 70 e1 d6 bd 7d 5b 48 be 4f e4 49 3e
       0.15515748 -0.104922175 -0.1956615 0.19715999
000350 2c 17 56 be 93 a2 3d be 4c c0 56 be dc 05 1f be
       -0.20907277 -0.18519048 -0.20971793 -0.15529579
000360 55 5c e2 bd d7 0a bc 3d a8 fd 36 3e 92 de 0c be
       -0.11052767 0.09181755 0.178702 -0.13756779
000370 46 05 c3 3d 49 39 d9 bc 7f 9a 59 3e f3 ac fa bd
       0.0952249 -0.026516574 0.21250342 -0.12240019
000380 ec 98 55 3e 27 e0 52 be f0 7f 3c 3e ab db f8 bd
       0.20859116 -0.2059332 0.1840818 -0.12151273
000390 5c 1c 27 be f6 aa b3 3c 12 5c a7 3d 4e 93 2f 3e
       -0.16319412 0.021932106 0.08171858 0.17146036
0003a0 99 4f d8 3d a6 c5 b1 3c b8 19 cf 3d 16 9f 08 be
       0.10562057 0.021700691 0.10112327 -0.13341936
0003b0 3c d5 17 be 05 f2 26 be 41 15 16 bd 35 fa b0 3c
       -0.14827436 -0.1630326 -0.036641363 0.021603683
0003c0 1f d0 09 be 4c ca 43 3e 5a 35 d2 3d a5 42 21 3e
       -0.13458298 0.19120139 0.10264082 0.15748079
0003d0 65 7e 3c bd 3e 9c 28 bd c3 53 f9 bd 91 6b e6 3c
       -0.046018977 -0.04116463 -0.121741794 0.028127464
0003e0 71 72 22 be 45 71 ed 3d 9b 11 07 3d a9 11 47 3d
       -0.15863968 0.1159387 0.032975774 0.048600826
0003f0 af 30 cd 3d 5e b1 cb bd d5 48 b5 bd a0 f9 5a 3e
       0.10019051 -0.099459395 -0.08851782 0.21384287

lstm.weight_hh_l0_reverse f4 [80, 20]
000000 64 12 37 bd 75 4f 12 be bc 47 30 bd 28 5f 7a 3c
       -0.044695273 -0.14288123 -0.04303716 0.015281476
000010 40 8a b4 3d 08 19 be bd ab 3c 29 3e f0 f7 a2 bd
       0.088154316 -0.09282118 0.16527049 -0.079574466
000020 c3 42 1e be db d4 08 be 5a 8c 10 be ba cf e0 3c
       -0.15455155 -0.13362448 -0.1411604 0.027442802
000030 ee 8b 5f 3e 16 8d 61 3e 0d f3 f7 bd 07 85 f3 3d
       0.21830723 0.22026476 -0.12106905 0.11890607
000040 a8 cc b6 bd c2 e7 83 bd 96 c5 0d bd 10 63 0b 3e
       -0.08925754 -0.06440689 -0.03461226 0.13612008
000050 4a f4 4c 3c 7c 82 5b bd d0 ad db 3d eb 70 95 bd
       0.012509415 -0.053591236 0.107265115 -0.07296928
000060 86 dd 4b 3d 6c c3 3c be 8a 80 41 be fc 15 27 be
       0.049771808 -0.18433923 -0.1889669 -0.1631698
000070 d6 a6 ce 3d d0 b5 54 be 4b 46 33 3e 0a 07 df bc
       0.10090415 -0.20772481 0.17507283 -0.027225036
000080 e3 8d 3b 3e ad 79 01 3e ac 79 28 3d 9a e2 ba 3d
       0.18315844 0.12644072 0.04113166 0.09125252
000090 58 35 6a bd e9 15 e5 3d 94 db 10 be f4 46 f4 3d
       -0.05717978 0.1118582 -0.14146262 0.11927596
0000a0 ac 15 50 3e 78 09 27 be 59 f3 aa bd 9a cf 2a 3e
       0.20320767 -0.16312206 -0.08347196 0.16680756
0000b0 ce 92 3c bd d7 9c 8e bd 11 07 35 3e 62 ad c5 3d
       -0.04603844 -0.069635086 0.17678477 0.09652211
0000c0 e1 77 15 bd ae 4a d8 3d a0 8d 28 3e e1 23 1a 3e
       -0.03649128 0.10561119 0.16460276 0.15052749
0000d0 d3 5c b9 bd 80 a6 2c 3e 5c c2 29 3e 92 1a 80 3c
       -0.09050908 0.1686039 0.16578048 0.01563767
0000e0 2b 68 5b be e5 6e 79 3d f7 60 0a bd e4 3f fe 3d
       -0.21426456 0.060896773 -0.03378388 0.1241453
0000f0 06 84 46 bd 81 47 00 3e 9d 6a f2 3c 79 db 23 be
       -0.04846575 0.12527277 0.029591853 -0.16001691
000100 e1 29 50 be 13 dd 40 3e 29 9c 12 3e 4c 14 2b 3e
       -0.20328476 0.18834333 0.14317383 0.16706961
000110 28 c0 01 be cb 87 db 3d a9 37 47 bc ec f3 40 3e
       -0.12670958 0.1071926 -0.0121592665 0.18843049
000120 67 b8 5d 3e 80 59 cd bd 15 62 d1 bc ce 98 9a 3b
       0.21652375 -0.100268364 -0.025559464 0.004717923
000130 d9 bf e0 3d bd df 7b 3d 26 9e 26 3e e6 a1 09 be
       0.10974092 0.06149267 0.16271266 -0.13440666
000140 8d 06 2d 3e f4 a3 50 be a0 f8 39 be 0b 8a 9b bd
       0.1689703 -0.20375043 -0.18161249 -0.07594689
000150 d3 3c 52 bb a6 ea 4d 3e 6d 4e f4 bd aa 2f 85 3c
       -0.003207971 0.20109043 -0.11929021 0.01625808
000160 05 7f 32 3e 07 2d 03 3e 95 c3 4b 3d f7 b4 3f bd
       0.17431267 0.12810145 0.04974707 -0.04680344
000170 57 30 c8 3d 7d 22 1a bd f9 e5 b7 bd d2 12 1a 3e
       0.09774845 -0.037630547 -0.08979411 0.15046242
000180 9a ef 26 be c5 18 e4 bd 10 a1 ff 3d 7b 90 5a be
       -0.16302338 -0.11137537 0.12481892 -0.21344177
000190 58 c3 38 bd 84 3e b0 bd b5 60 aa 3d 07 4e 71 3c
       -0.04510817 -0.08605674 0.08319227 0.014728076
0001a0 d3 8d 59 bd 0e 48 56 be 4e b3 18 3e 1a f5 e6 3d
       -0.05311377 -0.20925924 0.1491215 0.11277218
0001b0 db 58 57 be 56 10 55 3e f4 8f 62 be 2a 2f 33 3e
       -0.2102999 0.20807013 -0.22125226 0.1749846
0001c0 6c 88 d8 bd 40 57 f6 3c c9 f0 16 3e 6b 0e 67 3c
       -0.105728954 0.0300709 0.1474029 0.014102559
0001d0 a3 5d 42 3e c6 d7 49 be 2d 6c 66 3d 00 e9 61 3e
       0.18981032 -0.19711217 0.05625551 0.22061539
0001e0 0b 5b 4a bd 28 e0 c5 bd 91 aa 2d 3b 2d 25 48 3e
       -0.04940323 -0.09661895 0.002649937 0.19545431
0001f0 52 04 11 3e 75 c2 54 3e 63 fd b1 bd 5a 4e ab bd
       0.14161804 0.20777304 -0.08690908 -0.08364554
000200 3b af 2c 3e 85 c3 63 be 32 78 bd 3d 4d f9 9d bd
       0.1686372 -0.22242554 0.09251441 -0.07713566
000210 0f 20 57 be 1f b7 18 be 34 9b 33 3e ef 76 0c 3d
       -0.21008323 -0.14913605 0.17539674 0.03429311
000220 a8 fb 86 3d 61 94 47 3e cd 0b f4 bd 5b ad 4a 3e
       0.06590968 0.19490196 -0.11916313 0.19792692
000230 ee df 8f 3c 1b 2d e4 bd 2d 52 ae bd 6d c8 ae bd
       0.017562833 -0.11141416 -0.085117675 -0.08534322
000240 42 7e 72 3d 22 5a ee 3d 02 37 56 3e 76 2e 4f bb
       0.05920244 0.11638285 0.20919421 -0.0031613386
000250 c6 47 31 3e 46 6b 7d 3c 2c f5 85 3d 9e 3d 3a 3e
       0.17312536 0.0154674705 0.065409034 0.18187568
000260 c2 ac 3f 3e 32 fb 2f be e2 2f 0d be b6 05 f7 3c
       0.18718246 -0.17185667 -0.13787797 0.03015409
000270 86 e0 42 be 60 d6 8a bd 66 a2 c0 3d fd 80 f0 3c
       -0.19030961 -0.0677917 0.09405975 0.029358381
000280 85 dc 36 3e 30 40 f7 3d 53 16 44 3e 0c c1 a3 bd
       0.17857559 0.1207279 0.19149141 -0.07995805
000290 19 56 db bd bf 60 32 3e ef fa d7 bb 9b a1 e5 bc
       -0.10709781 0.17419718 -0.006591193 -0.028031161
0002a0 72 bd 39 3e e7 2e 05 be d1 9a 44 3e d1 62 57 3e
       0.18138674 -0.13006173 0.19199683 0.21033789
0002b0 ab 86 ae 3d e7 d4 21 be f5 f7 74 bd d1 ec 84 bd
       0.085217796 -0.15803872 -0.059806783 -0.06490482
0002c0 f0 b9 b2 3c 3e 8b 19 be 73 5b da 3c 35 86 18 3d
       0.021817178 -0.14994523 0.026654935 0.037237365
0002d0 5e 1b 2b be 88 55 24 be 2c 1b b0 3c 42 e7 4d 3e
       -0.16709659 -0.16048253 0.021497332 0.20107749
0002e0 fa 0f 56 3e 93 15 ac 3d 2c 21 39 be 95 af f7 3d
       0.20904532 0.084025525 -0.1807906 0.120940365
0002f0 36 d8 24 3e 66 1e 22 3e 98 70 d4 3d b1 d9 2c 3c
       0.16098103 0.15831909 0.10373038 0.010549949
000300 56 63 38 bd 62 b5 76 3b 80 5a f6 3d a9 c7 e3 3d
       -0.04501661 0.0037644734 0.1202898 0.111220665
000310 e4 5a 15 3e ed ce fd bc a2 c1 be 3d a6 fc 4f be
       0.14585453 -0.030982459 0.09314276 -0.20311221
000320 56 8a ee bd 7c 09 2b 3e 2e a7 16 be d7 0b 66 3e
       -0.11647479 0.16702837 -0.14712211 0.22465454
000330 90 13 33 3e 39 35 0f be 6e ca f9 3d e8 94 4b be
       0.17487931 -0.13985147 0.121968135 -0.19881022
000340 d0 8e fb bc 75 1b 2e bc c1 a5 95 3d 39 96 36 3e
       -0.030707747 -0.010626663 0.07307006 0.17830743
000350 ca 60 77 bc 04 4f a8 bd 09 98 02 3d 79 6e cf 3d
       -0.01509876 -0.08218196 0.031883273 0.10128493
000360 3a 5f 9a bc 7e 9f 7c bc 59 fb b4 bd d2 b1 4a be
       -0.018844236 -0.015418885 -0.08837003 -0.19794396
000370 a4 91 11 3e 3f 98 2f 3d 60 ef 48 be 62 ed 38 3d
       0.14215714 0.042869803 -0.19622564 0.04514826
000380 43 8b 00 bd 02 99 10 be 15 00 38 3b 55 ba 5a bd
       -0.03138281 -0.14120868 0.002807622 -0.053400356
000390 72 9f 4c 3e 8e 80 43 3e 73 48 12 3d 32 ce 64 be
       0.19982699 0.19092008 0.035713624 -0.22344282
0003a0 21 a2 3d be 94 9e 3e 3e dd d0 30 3e e4 b1 e4 bd
       -0.18518879 0.1861518 0.17267175 -0.111667424
0003b0 64 f4 26 be 4a e0 53 3e bf 7c 1d be 19 80 86 3a
       -0.16304165 0.20691028 -0.15379618 0.0010261565
0003c0 0f 65 27 3e a2 73 47 be 25 2e 5e 3e 1d 2f 2e 3e
       0.16347145 -0.19477704 0.2169729 0.1701016
0003d0 b2 df 57 3e 0d 54 18 be c5 d9 41 be 94 df b3 bd
       0.21081427 -0.14875813 -0.18930729 -0.087828785
0003e0 16 6c 2e be 81 68 01 3e 4f 86 51 bd 9f 98 d3 bb
       -0.17033419 0.12637521 -0.051153477 -0.006457403
0003f0 ab c6 0b bd 95 e7 35 bb ed 47 a4 3c a2 cd 31 bc
       -0.03412501 -0.0027756442 0.020053828 -0.010852249

lstm.bias_ih_l0_reverse f4 [80]
000000 32 a9 6f be 13 93 5a be 17 00 04 3e a5 e5 2f be
       -0.23404387 -0.21345167 0.1289066 -0.17177446
000010 5d 80 5f bd 27 45 4f be d7 13 19 be 83 79 87 3d
       -0.054565776 -0.20241223 -0.14948975 0.066149734
000020 a9 0d 17 be cc d6 14 be 1e 29 c3 3c 43 d1 2d 3e
       -0.14751305 -0.14535064 0.023823317 0.16974358
000030 58 e5 c1 bd d8 71 3b 3d ec c1 57 be 0a cd d0 3d
       -0.09467572 0.045762867 -0.21070069 0.10195358
000040 e0 3e 1e bd fe 1c 25 bc 67 13 2d be 27 19 20 3e
       -0.03863418 -0.010077713 -0.16901933 0.15634595
000050 01 34 90 3c ab 1c 64 be 3b 0d 79 bd 5a b0 b0 bc
       0.017602922 -0.22276561 -0.060803633 -0.021568466
000060 a0 26 25 bd 3b 65 03 be 28 95 2c bd 3b 47 0f be
       -0.04032004 -0.12831585 -0.042134434 -0.13992016
000070 f3 cc bf bd 6b e5 1b be 03 12 17 3e 78 31 59 bd
       -0.09365263 -0.15224235 0.14752965 -0.053025693
000080 96 1c 59 bc b9 d8 0d 3e 87 3a 38 3b bf fb 29 3e
       -0.013251444 0.13852204 0.0028111057 0.1659994
000090 86 4a c5 3d 83 70 07 be 9d 27 03 be 43 e7 46 3e
       0.09633355 -0.13226514 -0.1280808 0.19424157
0000a0 f0 d4 c7 bc fc 32 3d be b6 6d 1a 3e c1 ea 47 bc
       -0.024393529 -0.1847648 0.15080914 -0.012201966
0000b0 aa e7 e0 bd be 21 0b bd aa 9a c0 3e 57 a9 5a be
       -0.109816864 -0.033967726 0.37618 -0.2135366
0000c0 be a4 fe 3d 61 7e 24 be f5 10 29 3e 53 0d e6 bc
       0.12433766 -0.16063835 0.16510375 -0.028082525
0000d0 4d 15 67 3e 31 c0 70 be 4e b0 3f bc 8a 82 07 be
       0.2256672 -0.23510815 -0.011699749 -0.1323339
0000e0 29 18 eb bd dd 5f 1f 3e e4 da 24 3e fd 37 d0 3d
       -0.114792176 0.15563913 0.16099125 0.10166929
0000f0 23 a8 0d 3e 5d 88 49 bd e2 de 43 be ab a5 c3 bc
       0.1383367 -0.04920231 -0.19127992 -0.023882708
000100 22 6e 15 bd f7 0a 3c 3d 98 bd aa bd 20 9c 43 be
       -0.036481984 0.045908894 -0.083369434 -0.19102526
000110 91 e9 9d 3c c6 4a 3e 3e 87 02 13 be e9 69 e0 bd
       0.019276412 0.18583211 -0.14356433 -0.10957701
000120 2d 86 3b be f2 e2 d1 bd d4 99 19 3e 39 14 37 be
       -0.18312903 -0.102483645 0.15000087 -0.17878808
000130 b6 18 2b be 16 a0 01 be d8 1e c8 bb d6 2f 42 bc
       -0.16708645 -0.12658724 -0.0061071925 -0.011852225

lstm.bias_hh_l0_reverse f4 [80]
000000 2e 8e d9 bd 4d 25 15 3e 60 2f 13 be 5c 84 33 be
       -0.10622822 0.1456501 -0.14373541 -0.1753096
000010 c8 8c c7 ba 0e cc f9 3d e3 75 00 be f3 0e d1 bd
       -0.0015224451 0.121971235 -0.1254497 -0.102079295
000020 d7 7f 1d 3e ed 88 66 bd 88 0b d7 bb 06 c4 33 bd
       0.15380798 -0.056282926 -0.006562654 -0.043888114
000030 c5 55 a9 bd 87 aa 0d be 58 eb 7a be d9 c5 cc 3d
       -0.08268312 -0.13834582 -0.24503839 0.09998674
000040 9d 04 9c bd 1b 7b 2b bd 7a f4 99 bd d7 60 f0 bd
       -0.076180674 -0.04186545 -0.07517333 -0.11737221
000050 23 36 16 be 4f 7e 42 3e 64 9e 11 3d cf b5 3e 3e
       -0.14669089 0.18993495 0.035551444 0.18624042
000060 a8 64 ed bd b0 af cc ba 69 57 0b 3e 50 0b 4e 3e
       -0.11591464 -0.0015616324 0.13607563 0.20121503
000070 47 dc 39 be ee 49 be 3b 5b 82 45 3d 19 76 3f be
       -0.18150435 0.005807153 0.04822002 -0.18697394
000080 53 b2 e2 bc 87 43 03 3d b6 d8 24 be 2e 00 4c be
       -0.027672922 0.03204682 -0.16098294 -0.19921944
000090 25 91 f2 3d ae 00 1f be 0a fc 13 bd 54 3a ae bd
       0.1184409 -0.15527603 -0.036129035 -0.08507219
0000a0 50 01 13 bd 97 ea d5 bd 7f 2a 50 3e 61 13 61 be
       -0.035889924 -0.10445135 0.20328711 -0.21980049
0000b0 66 99 1c 3e 8b f0 2c bc 59 49 55 3e f6 68 24 3e
       0.15292892 -0.010555397 0.20828761 0.16055664
0000c0 64 6a 06 3e 7a 3b 9e 3c 86 79 2a 3e c1 c6 58 3e
       0.13126522 0.01931547 0.1664792 0.21169569
0000d0 5d 53 b0 bd 27 54 7d 3c af f3 e1 3b 29 a2 06 3e
       -0.0860965 0.015461958 0.0068955044 0.13147797
0000e0 9c 39 e9 be a0 73 b1 bd c1 9d 20 bc 86 08 bd 3d
       -0.45551765 -0.08664632 -0.009803236 0.09230141
0000f0 80 22 22 bd d9 4d 24 3e 45 73 dc bc b9 57 b2 bd
       -0.039583683 0.16045322 -0.026910434 -0.08708138
000100 95 95 3d be 29 30 5a 3e 26 39 8d 3d de c4 db 3d
       -0.18514092 0.21307434 0.06895666 0.10730909
000110 dc b9 09 bc 26 3c 21 be 0c f8 13 be 45 14 44 3e
       -0.008406129 -0.15745601 -0.14450091 0.19148357
000120 1d f5 3a 3d ec c0 b1 bd 5b 54 8e 3b 65 36 94 bd
       0.045643914 -0.08679375 0.004343552 -0.072369374
000130 10 8a 38 3d 03 e6 1e be 81 e1 34 3c db 47 48 3e
       0.04505354 -0.1551743 0.011040092 0.1955866

layer_norm.weight f4 [40]
000000 a6 16 95 3f 5e cd 82 3f d0 49 a8 3f d5 74 9b 3f
       1.1647537 1.0218923 1.3147526 1.2145029
000010 69 c1 82 3f 7e 62 8d 3f 70 a8 ab 3f 4c f3 98 3f
       1.0215274 1.1045682 1.3410778 1.1949248
000020 30 1f 99 3f a3 fe 09 40 9d 95 88 3f a4 41 88 3f
       1.1962643 2.1561668 1.0670658 1.0645032
000030 66 9c 95 3f 3f a2 7f 3f e4 f1 b9 3f d7 da 7f 3f
       1.1688354 0.9985694 1.4526944 0.999433
000040 af 94 8e 3f 10 d1 81 3f cb b5 a9 3f 6a bc 7e 3f
       1.1139125 1.0141926 1.3258604 0.9950625
000050 7a c5 7d 3f 10 c5 a8 3f 81 75 9f 3f 20 aa 96 3f
       0.9912945 1.3185139 1.2457734 1.1770668
000060 e0 c7 7f 3f de 23 81 3f 17 96 b6 3f 2e 71 86 3f
       0.9991436 1.0089071 1.4264554 1.050329
000070 79 a0 97 3f 82 0b 8e 3f db 93 89 3f c1 bd 87 3f
       1.1845847 1.1097262 1.0748247 1.0604783
000080 7d 15 87 3f b2 d9 93 3f 78 4d 81 3f 42 fb 80 3f
       1.0553433 1.155081 1.0101767 1.0076678
000090 cb 89 ca 3f f4 25 82 3f d9 ab 87 3f 78 ab 8f 3f
       1.5823301 1.0167832 1.0599319 1.1224203

layer_norm.bias f4 [40]
000000 27 dc 7d 3e e5 cc e0 bd 51 9e b6 3e 72 06 92 3e
       0.24791013 -0.109765805 0.3566766 0.28520542
000010 15 10 4d 3e 27 67 69 3e 4c 34 b1 be bc f1 95 3e
       0.20025666 0.22793256 -0.34610212 0.2928599
000020 33 fb a8 be ac 54 1c bf c0 be 5a 3e c9 0a 16 be
       -0.3300415 -0.610667 0.21361828 -0.14652552
000030 cf de 87 be 62 15 cf bc 4a 05 db be 67 d8 50 bc
       -0.26537177 -0.02527875 -0.42777473 -0.012746907
000040 bf d7 7d 3e 25 70 44 be 4b a7 c1 3e af 5e 62 3c
       0.24789332 -0.19183405 0.37822947 0.01381652
000050 65 23 29 bd b3 37 b1 be 4e 2f 95 3e a7 73 8d be
       -0.04129352 -0.34612808 0.29137653 -0.27627298
000060 d6 37 02 bd 03 53 9d bd e4 f0 c1 3e b5 cf 1f be
       -0.03179153 -0.07681849 0.37879097 -0.15606578
000070 c1 95 6e 3e a1 9e 4b be a5 72 1e 3e d8 3a f9 3d
       0.23299314 -0.19884731 0.15473421 0.12169427
000080 17 42 06 3e a7 22 8a be 51 ac ac bd 04 b5 3f 3d
       0.13111149 -0.26979563 -0.08431304 0.04680349
000090 a0 55 f2 be 61 9c 90 bd a0 b5 0d 3e 5e 10 38 3e
       -0.47330952 -0.07061077 0.13838816 0.17974994

linear_layers.0.weight f4 [1, 40]
000000 a5 a9 27 3f de 87 8d be 2c 1d 70 3f 63 16 41 3f
       0.6549323 -0.2764272 0.9379451 0.75424784
000010 4a ad ab 3e b5 62 0a 3f c9 71 79 bf 02 10 3b 3f
       0.33530647 0.54056865 -0.9743925 0.730713
000020 b0 8f 40 bf 8a da 00 c0 06 0f f4 3e 53 ce d4 be
       -0.7521925 -2.0133386 0.47667712 -0.41563663
000030 23 06 2d bf 72 3a 32 bd ed ff 92 bf f2 5c f5 3c
       -0.6758749 -0.04351277 -1.1484352 0.029951546
000040 c9 55 12 3f 72 13 a1 be fe 1a 75 3f 52 84 56 bd
       0.5716215 -0.31460148 0.9574431 -0.052372284
000050 8a 7f e8 bd 8d 18 70 bf 6c 63 4f 3f c7 f8 2f bf
       -0.11352451 -0.9378746 0.8101108 -0.6873898
000060 bf 76 8b bd c6 f0 38 be 86 9b 8c 3f 34 71 c0 be
       -0.068097584 -0.18060598 1.0984962 -0.37586367
000070 d2 2a 31 3f 7d 82 07 bf bf 30 e7 3e a8 48 cb 3e
       0.69205964 -0.52933484 0.45154378 0.3970387
000080 7e e4 c2 3e ab 34 25 bf a6 d4 51 be 64 3e 13 3e
       0.3806495 -0.6453349 -0.20491275 0.14379269
000090 65 c5 a9 bf 6a 6c 4f be d0 e4 cf 3e aa 38 13 3f
       -1.3263365 -0.202562 0.40604258 0.5750834

momentum_buffer f4 [80, 20]
000000 68 df b3 ba e9 1d 64 39 d4 c2 bc 39 43 bc 15 bb
       -0.0013723196 0.00021754917 0.00036003313 -0.0022847808
000010 84 22 6f 39 c7 26 65 b9 c3 b3 17 ba e0 fb a1 ba
       0.00022805674 -0.00021853588 -0.00057869795 -0.001235839
000020 57 11 49 ba ce ee 40 bb c9 a5 b4 ba b0 f0 e3 b8
       -0.00076701253 -0.0029439214 -0.0013782318 -0.00010869035
000030 e4 7d 9d ba fd 22 eb bb 6b aa 23 bb bc 74 ae ba
       -0.0012015668 -0.007175802 -0.0024973403 -0.0013309936
000040 db 0e 98 3a 6e 83 48 ba dd 48 c4 b9 5a c4 eb b9
       0.0011601107 -0.0007648979 -0.0003743832 -0.00044968986
000050 5a 8b 12 39 5d 99 0d 38 01 c1 3b 3a b0 f2 12 b9
       0.00013975558 3.375985e-05 0.0007162244 -0.00014014053
000060 5a 46 0b 39 ba d0 11 3a 36 a4 17 b8 21 93 0b b8
       0.00013282281 0.0005562414 -3.615414e-05 -3.3277207e-05
000070 82 26 12 b9 79 0a 11 b9 fe 3f 8b b8 79 21 86 b8
       -0.0001393799 -0.00013832179 -6.639956e-05 -6.395853e-05
000080 66 65 c8 b7 a6 e4 e7 b8 a8 97 a3 b8 c4 f9 33 39
       -2.3889075e-05 -0.000110575274 -7.800694e-05 0.00017163815
000090 3b 63 8e 39 44 d1 83 37 a3 14 1c b8 8a fe 24 b9
       0.00027158283 1.5713864e-05 -3.7212518e-05 -0.00015735082
0000a0 98 52 96 ba 3e f9 f9 b8 29 b4 c5 3a 30 91 2b bb
       -0.0011468707 -0.0001191967 0.0015083599 -0.0026179068
0000b0 dc 39 0c bb da a1 cb ba cd ee 8a ba 8e 00 a6 ba
       -0.0021396792 -0.0015535906 -0.0010599733 -0.001266496
0000c0 7c 6a f9 ba db 7c 1d 3a ec e2 20 3a 71 d7 6a ba
       -0.0019028927 0.00060076796 0.00061373296 -0.0008958495
0000d0 c2 05 f3 3a a6 34 80 3a 2c 47 59 bb 04 a4 c8 ba
       0.0018541145 0.0009781315 -0.0033153994 -0.001530767
0000e0 6c da f4 3a bf 9a 69 ba 85 fe 0e 3a 08 33 49 ba
       0.0018680817 -0.00089113036 0.00054547965 -0.0007675146
0000f0 8f 18 10 3a 22 93 16 39 00 f3 a0 b6 32 5a 83 ba
       0.00054968236 0.00014359926 -4.7966605e-06 -0.0010021387
000100 02 0d 36 b9 14 13 ab 39 82 f6 c6 b9 74 b8 9b 37
       -0.00017361718 0.00032629876 -0.00037949166 1.8563333e-05
000110 bc 4e eb b8 a7 3e 03 3a f0 b9 ec b7 68 0b 20 b9
       -0.00011220339 0.00050065893 -2.8219976e-05 -0.00015263038
000120 b8 52 5b 3a d6 5c 82 ba 46 8c b9 39 7c ad ce b9
       0.0008366513 -0.000994588 0.00035390462 -0.00039420638
000130 07 d8 27 3a a3 a1 17 3a 28 b3 2c b7 99 ba 1a b9
       0.0006402735 0.00057842786 -1.0293712e-05 -0.00014756098
000140 0e 22 ae ba 4a ff 06 ba bc 9c 20 3c 5b e2 00 3c
       -0.0013285296 -0.00051497354 0.009802993 0.007866467
000150 52 dc 6b 3a 10 41 b7 3b 78 95 59 3b ce fb c8 ba
       0.0008997369 0.005592473 0.0033200663 -0.0015333833
000160 18 b8 0f ba c2 2a ac 3b 58 eb 98 3a 58 9c 88 39
       -0.0005482449 0.0052541206 0.0011666818 0.00026056427
000170 f5 20 0a 3c 74 dc 12 ba b5 2b c0 bb fe 36 a5 3b
       0.008430709 -0.0005602308 -0.0058645853 0.005041956
000180 34 a2 6b 3b 5a 49 29 39 75 3a 04 3b 3a 09 37 bb
       0.0035954835 0.00016144422 0.0020176445 -0.0027929083
000190 71 80 a9 39 e6 a0 a3 39 6a 05 cf 3b a9 9f 2f 39
       0.00032329888 0.0003120966 0.006317784 0.00016748779
0001a0 b0 4a 4d 3a 44 65 e6 3a e3 36 a7 39 d8 cd 4d 3a
       0.00078312587 0.0017577787 0.00031893616 0.00078508025
0001b0 2c 3d e3 39 94 b9 a4 ba b6 47 9c b9 a3 93 f8 3a
       0.0004334239 -0.0012567514 -0.00029808067 0.0018964898
0001c0 b3 53 fb 3a 5e 18 db ba 17 a1 1d b9 88 b3 45 3b
       0.0019174725 -0.0016715636 -0.00015032697 0.0030166823
0001d0 8c f5 7e 3a 48 15 35 3a 1f de b0 3a b8 bf 98 39
       0.00097259204 0.0006907773 0.0013493932 0.0002913454
0001e0 d4 bd a3 ba 09 1d d0 b9 c6 7b 4c b9 86 7f a4 ba
       -0.0012492486 -0.00039694484 -0.00019501065 -0.0012550212
0001f0 32 45 b6 ba 9d 2e 99 ba 23 c7 8a 3a 91 1e a8 b9
       -0.001390612 -0.0011686865 0.0010587912 -0.0003206623
000200 c0 19 c3 b6 18 c9 c6 b9 79 a5 04 bb 21 30 89 ba
       -5.8144506e-06 -0.0003791533 -0.002024023 -0.0010466614
000210 2d 86 81 bb 57 30 32 bb ab a8 ca b9 62 a1 88 ba
       -0.0039527626 -0.0027189457 -0.0003865411 -0.0010424072
000220 82 1f f3 b9 94 3f f9 ba 20 84 96 ba b0 0d c3 ba
       -0.00046372047 -0.001901614 -0.0011483468 -0.0014881399
000230 ed 5b bd 3a 15 57 50 3a 85 66 b6 3b 98 30 b6 bb
       0.0014446952 0.00079475465 0.0055664205 -0.005559992
000240 34 0d 4d ba dd f6 4e 3a 9c 10 a0 ba 8b de 0a 3a
       -0.0007822097 0.0007895062 -0.0012211981 0.0005297444
000250 98 e8 c6 ba 12 38 5d bb 6a d3 ae 39 24 46 c9 3a
       -0.001517552 -0.0033755344 0.00033345382 0.0015355987
000260 d8 77 6f 3a 1a a8 e1 bb 66 af a4 ba 8e ab fa 3a
       0.00091349846 -0.0068864943 -0.001256448 0.0019124614
000270 a0 0e d6 3a 14 c3 2b ba d8 aa 9c 3a a6 5f 31 3a
       0.0016331263 -0.0006552201 0.0011952771 0.0006766267
000280 76 e0 ab ba f3 a3 31 39 2c cc 4d 3a 5a 08 b6 ba
       -0.0013113159 0.00016941111 0.00078505534 -0.0013887987
000290 4e dd 87 ba b4 66 0b 39 60 15 6c 38 0e c7 51 37
       -0.0010365637 0.00013294333 5.628669e-05 1.2503717e-05
0002a0 52 4f c5 b9 8d ca 90 39 7d 88 f4 39 e1 ff 80 b9
       -0.00037633866 0.00027616732 0.00046640998 -0.00024604707
0002b0 10 b8 ee b8 ea 5f 8a 3a ac ae ef ba 55 9f f2 b9
       -0.00011383009 0.0010557149 -0.0018286309 -0.00046276549
0002c0 9c 55 88 3a 74 d9 1f ba ba b1 7e b8 ba 9f 0e ba
       0.001040149 -0.00060977717 -6.072384e-05 -0.0005440671
0002d0 ba a7 5a 3a 45 c9 22 3b ca d4 46 3c a2 c6 c2 bb
       0.0008341033 0.0024839204 0.012135694 -0.005944089
0002e0 65 ee 3f bb 86 26 6d 3b fe 54 6c bb 3a e1 25 3b
       -0.0029286381 0.0036186292 -0.0036061401 0.0025311247
0002f0 ce a1 90 ba cf 5c e1 3b e2 26 10 bb a4 74 82 3b
       -0.001103455 0.0068775187 -0.0021995832 0.00398119
000300 7c ed 64 3b ea f2 93 bb 1e 3e 51 bb 80 ca 09 3c
       0.003493159 -0.0045150416 -0.0031927894 0.008410096
000310 c9 ba ce 3b aa 98 c1 3a 46 cb 10 bb 63 71 5f 3a
       0.0063088876 0.0014770229 -0.0022093817 0.0008523671
000320 62 4b c5 ba 51 2d 1e 3b fc 53 68 3b d9 30 c1 bb
       -0.0015052373 0.0024135897 0.003545045 -0.0058957157
000330 31 c8 54 3b 82 cb b4 3a f8 b5 b5 b9 43 d3 49 bb
       0.0032467956 0.001379356 -0.00034658588 -0.0030796088
000340 86 8a 47 ba 51 71 04 bc 8e 22 66 bb 4d c4 3f 3b
       -0.0007611889 -0.008083657 -0.003511581 0.0029261291
000350 e2 b3 0e bb 7e 74 b2 bb 16 ea 1e bb 43 a8 3c 3b
       -0.00217747 -0.005446016 -0.0024248413 0.0028786815
000360 ac eb 95 ba 06 4e 88 ba f0 52 11 3a 74 3d dc 3a
       -0.0011438034 -0.0010399229 0.00055436697 0.0016802982
000370 87 4c 1c b8 ac a7 32 38 e3 65 83 39 32 82 75 b9
       -3.726457e-05 4.2594664e-05 0.0002506218 -0.00023413522
000380 70 6e 86 37 78 70 ef b9 9a 84 72 39 0e 3b bd b9
       1.6025471e-05 -0.00045669428 0.00023128316 -0.00036092888
000390 d0 b0 46 b7 04 e7 c5 b8 cc 55 1d b9 f0 3c 7a b8
       -1.1842887e-05 -9.436722e-05 -0.00015004649 -5.9661397e-05
0003a0 f4 8c fd 39 f2 26 f6 ba 2c bb 37 b8 c8 6c c2 b8
       0.0004836094 -0.0018779917 -4.3804917e-05 -9.270903e-05
0003b0 ce 3b d9 b9 e4 d3 98 ba 56 29 9c b8 fa 66 e6 b8
       -0.00041434023 -0.0011659828 -7.446359e-05 -0.000109864355
0003c0 78 da 97 39 9a 95 46 39 88 8b 2f 3a 40 e4 a8 b7
       0.00028963736 0.00018938482 0.0006696512 -2.0133448e-05
0003d0 45 93 09 3a 00 c1 8d b6 c6 33 7f 39 ac ed 55 b8
       0.000524808 -4.2245956e-06 0.00024337982 -5.1004507e-05
0003e0 31 0f 1d 39 fe 79 cb b8 78 99 a0 b7 7f fc 18 b9
       0.00014978346 -9.702517e-05 -1.914495e-05 -0.00014589912
0003f0 aa 32 69 ba 4a 48 87 b9 10 68 c4 39 ab 12 71 3a
       -0.0008895794 -0.00025803066 0.00037461566 0.0009196202
